kcca_notebooks/checkpoint.model (torch_old, 149352 bytes, 8 tensors)

module.model1.layers.0.0.weight f8 [1024, 4]
-0.3388840759585781 -0.08356556187896479 -0.27296291796809763 -0.30448137857208724 0.40045532453071647 0.22522717139346005 0.3283012257039495 -0.16732752623161748
0.003909655947146689 -0.03330478676633838 0.30979938385579886 -0.37914373401520673 0.10341454505509574 0.20183949844868718 0.5151279020076776 0.2430006806098643
0.1269062971204691 -0.33115703320126083 -0.29492605847726766 -0.3184649312837612 -0.13064572227447405 -0.4146480196925237 -0.14307420206069205 -0.011173838932292658
0.376302640004681 0.12734049069424463 0.24937846229745947 -0.20061640547367995 0.3402602965095041 -0.2274874922728754 -0.4689719169699745 -0.152546143527324
0.036943767091195116 -0.4943543309466125 -0.30155886859822967 -0.09754304468880552 0.34185177834591224 -0.38719455186398716 0.41699707957646626 -0.0288375678658723
-0.3266763487281421 -0.03354178682389908 -0.5111214586409668 -0.04924565589793094 -0.17456827384214565 0.49061776716121114 -0.12902817406041492 -0.18511490514364112
-0.1270522696295794 -0.15643872696920016 -0.19106278671732396 0.35342591676078866 -0.16358278620211308 0.083760975322426 0.2884762356498423 0.47278293433957713
0.07425343285464155 0.3713139747646167 0.2478489965173926 0.1281231878415832 0.2527992588409758 0.06853909456869611 0.40918661047390503 -0.2568807779822844
-0.23695751293120199 -0.03888042537599176 -0.1811141443397816 0.24499648176039285 -0.18671618260109793 0.20416443739507584 0.07037722840921681 0.22166478924602456
-0.31532054593981773 0.49678009300438064 -0.09369953804104322 -0.43865964731077395 0.537046827082895 0.003223326895169379 0.3945157050520445 -0.021856307485670586
0.27931615968749834 -0.16575628676202092 -0.3423307082960457 -0.05646432523156656 0.12991753525751756 -0.48473759700178454 -0.20471972149698742 -0.09020046864769521
-0.08001614526189302 -0.42912645597918564 -0.46313411093410906 0.12730857221776004 -0.4164154100694568 0.1365218487434838 -0.3483985052765448 -0.3367492611401238
0.15777645408602312 -0.262530079565438 0.4992900211870208 0.1479587819691306 -0.22557516598353272 -0.4130105264582042 -0.32451240105784035 0.2363934800533788
0.2777383476025446 -0.1735514204384914 -0.20588549161491834 -0.2647900286666336 0.47967133136148793 0.1727847411194738 -0.4424235980213672 -0.219776997647638
0.06456728653649038 0.30777059859618533 -0.05296657437883407 -0.019868086014993867 0.27400036788169624 -0.4237030905394956 0.11094836408809323 -0.3382836022957617
0.45941447334656105 0.437382273430572 -0.06545753945303631 0.3893465234301836 -0.4440270317549645 -0.32492579004228334 -0.08828872875313976 0.03843928273186549
-0.13696647117254127 0.37246120922781306 0.44880909352357445 -0.26424436318624384 0.06463754883947567 0.1640442125286808 0.20475468045440415 -0.42055029811711925
0.05846050258603201 0.11785940494102985 -0.26487644562339246 0.4103059691990581 0.09474032582710883 -0.28893419048515406 -0.3754184021809839 0.15966462697601097
0.04452190943734968 -0.43353577277846184 0.43117888614407907 0.48993459071590645 -0.3187908692069477 0.32964922056532986 0.008024466395470567 -0.18535327103562002
-0.05516752054683575 0.0009474443966452162 -0.3280154513993008 0.327102767205978 -0.2633245026063555 -0.06971701986555837 -0.303454091003672 -0.006757240480515712
0.2872615817148545 0.052162379350470786 -0.2866873632010928 0.34232523009318894 0.23947391764335738 0.22567291461921304 -0.1384323005840166 -0.31460292682866237
-0.1256786040383958 -0.19620042309870975 -0.07181034908403208 0.4163103906893925 0.030043379121645834 -0.24108142880633918 0.3674870776839921 -0.3135546473220771
0.43412322947205995 -0.1719255647929234 -0.2569784154355178 -0.23971687273524003 0.29157595508875667 0.44308844210980847 0.03544697953862746 -0.2973748035061744
-0.287095183220077 0.4298547857891944 -0.3624844340317761 -0.10654851816110175 0.2896666338821517 -0.28557312273152424 0.1671856536573033 -0.0574056553005801
0.43086228032751794 0.16102493907643128 0.04346564998235456 0.30209035474674967 0.4727008230504004 -0.09147568874657133 0.041915206928246344 -0.14059911717892595
0.17834182773444335 0.38969789307731306 -0.2235770508272589 -0.21988801619983234 0.4251353658198559 -0.07475163611752206 -0.1853876980110401 0.24473274605071244
0.33442068770758404 -0.2756247864204761 -0.3397252353145107 -0.2357412474706127 0.38975581157067163 -0.2879192851384981 0.15692117123765972 0.010412256377734934
-0.12315906972504806 -0.3127674376988669 0.05551420400349371 -0.3401416793221413 0.1403587515455663 -0.18033901179169454 0.0968531632974778 0.254448359275291
0.4085641016538516 0.46213337755661726 -0.447011166779564 0.08012774393521267 0.25563863876797815 -0.06315965718705463 -0.09470585081213574 0.04509952457678169
-0.5696934497421745 -0.15585625124471902 -0.29729671642391137 0.3612160824003249 -0.4362249448608568 -0.033062293394768245 0.24645295322967134 -0.3973520753736054
0.0870891281566135 -0.1025124070299216 0.4582896828606841 0.12881126828253825 -0.052171841601970144 0.183668244204391 -0.46518477851693807 -0.39335386836002073
-0.3662660413726628 0.08000613658875974 -0.13070823918781554 0.38579464951105347 -0.5001516708741918 0.19787888053392733 -0.14115441695079745 -0.3754638561567141
00000000: 3d25 d8d5 46b0 d5bf 7f8e 577b 8d64 b5bf
00000010: bf65 6c75 3978 d1bf ac51 cd76 9f7c d3bf
00000020: 6795 975e 0fa1 d93f 8c1a a773 3ed4 cc3f
00000030: c0a6 e824 e302 d53f 1b54 7106 fd6a c5bf
00000040: acdc e746 9203 703f eb60 ec33 530d a1bf
00000050: a4d2 7ecb c0d3 d33f 5e08 8514 e443 d8bf
00000060: 293e f128 6079 ba3f 5b67 706e e0d5 c93f
00000070: 8429 8c82 ed7b e03f 8e03 1074 a51a cf3f
00000080: d1f9 e42d 773e c03f b525 dc44 ad31 d5bf
00000090: 9f79 f98b 11e0 d2bf 5658 32bc ba61 d4bf
000000a0: 35fd 43c0 ffb8 c0bf 2f8e fbd8 9789 dabf
000000b0: 7e40 6065 4150 c2bf 949d 4746 4fe2 86bf
000000c0: fdfc 0dab 5715 d83f 0283 7e75 b14c c03f
000000d0: 4e7a f229 a2eb cf3f cb77 4662 ccad c9bf
000000e0: 65ad 681f d3c6 d53f 92d0 c765 4f1e cdbf
000000f0: d138 88c9 a203 debf f556 cacc a186 c3bf
00000100: 173c e51e 4bea a23f 6c4e 0359 80a3 dfbf
00000110: 9eae 9c91 bd4c d3bf 0304 e4ba 94f8 b8bf
00000120: ffce 0448 e6e0 d53f 2b7e 5ca8 cbc7 d8bf
00000130: 5abd d384 14b0 da3f 7839 856b 9887 9dbf
00000140: fc7f 8aea 43e8 d4bf 9085 ea9a 632c a1bf
00000150: 55b2 a463 1b5b e0bf 2e76 1a03 ba36 a9bf
00000160: af1c 89d1 4058 c6bf fdcf 3210 4866 df3f
00000170: e110 edc5 fe83 c0bf d70a cc5f d8b1 c7bf
00000180: ed86 78af 3f43 c0bf 258e 1428 2f06 c4bf
00000190: e67d 37d2 be74 c8bf 4ff8 82bc 879e d63f
000001a0: 009c 76de 47f0 c4bf b1dd b0f9 5b71 b53f
000001b0: 4583 7207 6576 d23f 051b 465a 1342 de3f
000001c0: 7df6 b9e1 4502 b33f e65a 8ab0 9bc3 d73f
000001d0: 45be 3113 84b9 cf3f 51c6 d132 5766 c03f
000001e0: b133 4bf1 dc2d d03f 3085 ab31 c78b b13f
000001f0: ac93 7c09 1d30 da3f adea 1913 bc70 d0bf
00000200: 865e 4ab0 9f54 cebf 5c8f e396 22e8 a3bf
00000210: 3525 648f bf2e c7bf 9ee1 6572 0b5c cf3f
00000220: 51ed f3dc 50e6 c7bf 941d cf6e 0f22 ca3f
00000230: d294 66f6 3d04 b23f 9e42 3e06 835f cc3f
00000240: 6260 243a 362e d4bf 647d 30bb 3ecb df3f
00000250: de5d 8963 b1fc b7bf 2b94 d1e9 ff12 dcbf
00000260: 32bb d7d3 7c2f e13f 3a94 2b73 ce67 6a3f
00000270: 103e bdcc be3f d93f 42f8 72f7 7f61 96bf
00000280: 1e89 c6e2 50e0 d13f 54e8 5f83 8037 c5bf
00000290: f612 230f bfe8 d5bf 3544 855c e4e8 acbf
000002a0: cbd1 8d46 23a1 c03f 2aea 90d7 f005 dfbf
000002b0: 4280 567e 4134 cabf 44fc ecbe 6017 b7bf
000002c0: ce43 0d27 f07b b4bf e8da 91cf ce76 dbbf
000002d0: 2ef0 0741 fda3 ddbf 707e 16b5 a54b c03f
000002e0: a81e f3d1 8ca6 dabf e777 c545 8c79 c13f
000002f0: b4d5 883e 294c d6bf be22 e3c5 4c8d d5bf
00000300: 9f6c 30d3 0432 c43f 15ca 7cf6 4acd d0bf
00000310: e8e9 0d22 5ef4 df3f 0851 db38 50f0 c23f
00000320: 9e32 58a4 a5df ccbf b3ab 02b4 c36e dabf
00000330: ab26 6ca9 cfc4 d4bf dc8f e83c 2442 ce3f
00000340: 9512 f30f 77c6 d13f d194 7ad5 ee36 c6bf
00000350: 8d7d 9aae 745a cabf a886 5be0 51f2 d0bf
00000360: 0bb0 4162 efb2 de3f 4f90 2d76 cf1d c63f
00000370: 3ebf 1e11 ab50 dcbf 67a3 a714 a721 ccbf
00000380: e2d0 1050 7b87 b03f 7b05 e973 83b2 d33f
00000390: 19fb 7951 6f1e abbf d68e acae 4c58 94bf
000003a0: e834 c9d6 3889 d13f 6033 4591 f31d dbbf
000003b0: 6d95 4dab 1c67 bc3f 1689 2844 70a6 d5bf
000003c0: 6448 95f6 0b67 dd3f 0201 0f38 12fe db3f
000003d0: 3e38 3a47 d3c1 b0bf 7469 3cae 0deb d83f
000003e0: 965c fb5a f06a dcbf cdf2 768a 95cb d4bf
000003f0: 70a3 9912 179a b6bf 521c 6e4c 50ae a33f
00000400: e5d3 2a09 1e88 c1bf 5d5f 2a8a 67d6 d73f
00000410: b031 b5c6 49b9 dc3f 8762 8230 61e9 d0bf
00000420: 4ef1 5b1e 168c b03f 2a52 f497 66ff c43f
00000430: 9c96 20c0 6635 ca3f e51b 2fcc 4bea dabf
00000440: 36f1 6df5 88ee ad3f 276c bfb1 082c be3f
00000450: 6fb9 db55 bcf3 d0bf 0111 c4f7 7342 da3f
00000460: 6b31 0ae9 e640 b83f 3f1e b5d4 e57d d2bf
00000470: 08c5 ebe7 da06 d8bf 2252 98f7 e36f c43f
00000480: e04f fa61 93cb a63f 73b1 6ed3 0cbf dbbf
00000490: d0ba ad53 6f98 db3f 2374 139d 165b df3f
000004a0: d976 60d1 1167 d4bf 08b8 5e0b f918 d53f
000004b0: 2824 e4a5 216f 803f 87fd a6ee a7b9 c7bf
000004c0: 75a2 19d1 ea3e acbf 482d 6459 bd0b 4f3f
000004d0: 60ee 1585 34fe d4bf 722b e571 40ef d43f
000004e0: 3f81 bb03 4fda d0bf 6212 4c80 f9d8 b1bf
000004f0: f7ae 2cb5 ca6b d3bf 6417 00ee 7aad 7bbf
00000500: b833 b766 7e62 d23f 569c c802 07b5 aa3f
00000510: be02 48f4 1559 d2bf 9423 f614 a8e8 d53f
00000520: c9f8 42d2 14a7 ce3f 6df6 f09d d9e2 cc3f
00000530: 4df4 db4d 26b8 c1bf 7d1e 7d50 7422 d4bf
00000540: 9c6f 138b 3c16 c0bf 17cd 5570 181d c9bf
00000550: 028c d4bc 2962 b2bf 37bd 3f56 d4a4 da3f
00000560: aeba 270b b1c3 9e3f ffb5 329a c1db cebf
00000570: 2dbe 1685 e884 d73f e774 f082 4711 d4bf
00000580: b60c 41cc acc8 db3f 3fe3 102b a801 c6bf
00000590: 6ab3 8498 5572 d0bf 7d3f 59e0 0aaf cebf
000005a0: c4fe d931 2ea9 d23f cc38 06a0 8f5b dc3f
000005b0: 8784 b843 1b26 a23f 16a9 ed53 3008 d3bf
000005c0: 2c3d b179 c45f d2bf 6198 bfa5 bd82 db3f
000005d0: 606f 5ee9 f132 d7bf 066f f080 c346 bbbf
000005e0: 310a d1eb e589 d23f 46e7 af7d d446 d2bf
000005f0: a0c4 68e9 5666 c53f 762d 3e28 4664 adbf
00000600: 108c c562 3f93 db3f a63a 9617 779c c43f
00000610: 8de1 5832 2141 a63f cbc1 84c8 7255 d33f
00000620: d8cc f2f3 ba40 de3f 62ac 8b63 f36a b7bf
00000630: ef7c ecf5 e875 a53f 7da2 10e1 26ff c1bf
00000640: 226c d0ae e7d3 c63f 1a94 856e cff0 d83f
00000650: ed37 b83c 2c9e ccbf 1428 2e5f 4a25 ccbf
00000660: 0a6f 24f7 6a35 db3f f47e 7258 ec22 b3bf
00000670: d2e1 04ba c8ba c7bf 9627 4612 6753 cf3f
00000680: 72d5 3307 2667 d53f c325 e924 d6a3 d1bf
00000690: 824f d3e9 0ebe d5bf da2d 1aea c42c cebf
000006a0: 68ce 075c c2f1 d83f dfae 6302 456d d2bf
000006b0: 9104 4231 fe15 c43f 8fa2 f564 0553 853f
000006c0: f6c3 ac50 5a87 bfbf 07e7 0ab7 6104 d4bf
000006d0: ff23 5195 5b6c ac3f c97c 2c9b e1c4 d5bf
000006e0: 833c cc8b 46f7 c13f f84c eb46 5915 c7bf
000006f0: ed76 e070 5ecb b83f 4bed 66c5 e148 d03f
00000700: fe10 bb0b ea25 da3f 69b9 bfdf 9793 dd3f
00000710: 3cf6 90b9 d49b dcbf 6539 b477 4083 b43f
00000720: 1d8e 462a 625c d03f 3883 0b36 3b2b b0bf
00000730: c55c fa83 a43e b8bf 91ae 3eee 4817 a73f
00000740: fb6a ecc1 ed3a e2bf b892 fcfe 18f3 c3bf
00000750: bded 8fce e806 d3bf 76b6 2c0f 2a1e d73f
00000760: 371d f807 1ceb dbbf 89fa b879 8aed a0bf
00000770: 11e1 0f37 c58b cf3f 1a8d 2e66 376e d9bf
00000780: 1f12 451d 794b b63f 79b4 a0cb 403e babf
00000790: 3fc6 fe3f 9e54 dd3f c29c 503c e37c c03f
000007a0: 29b5 e782 44b6 aabf 05f7 15e7 7082 c73f
000007b0: b4f1 9460 96c5 ddbf d220 17b4 b52c d9bf
000007c0: 9b2e 551f e770 d7bf b6c6 203c 487b b43f
000007d0: 9e90 502e 0cbb c0bf deca a70a dcb0 d83f
000007e0: 9a38 ae13 3e01 e0bf f02c 3b5c 1854 c93f
000007f0: f8ab 3e12 5911 c2bf 0d7b c18d 9907 d8bf

module.model1.layers.0.0.bias f8 [1024]
0.3226226462993028 -0.4250300638500384 -0.25472587725843304 -0.14970563548514268 -0.2167538150766607 0.14829410534408274 -0.5239789826029486 -0.11924383492926824
-0.43091859685347506 0.20327004662338707 -0.4396703311655946 0.058537491175382504 0.3122779811183236 0.24463327118033495 -0.105105708617486 -0.5548506462166004
-0.39010806796055514 0.2193878141390406 0.4027173858588175 -0.05277944863273276 -0.4073350228713984 -0.39993824795297533 -0.18848624190231492 0.17915826987986294
-0.1995721419450463 0.3995135909160083 0.22493753746230238 0.16619727367906345 0.4589379743994379 -0.05193650376823289 -0.2179166638639227 -0.43599039707156273
0.439073087710006 -0.04170679490292558 0.025606237439342063 0.3724911305419391 0.49684770892517066 0.4441598426619051 0.07630618337702742 0.12544270093347615
-0.21163096768432693 0.4900165048876507 -0.13338205116513485 0.04409850759575829 -0.11824616338777515 -0.463675071325591 -0.1630972115184488 0.1299909048543801
-0.42086819800375525 -0.3591157968825485 0.3649479208476887 -0.46827576891582773 -0.13295774096193383 -0.24459667389220416 -0.23453382599755285 0.1514317790365566
-0.5355215083078291 -0.023837282651868096 -0.18856390768587167 0.22469182028951618 -0.28084050407673106 -0.389633654074019 -0.4938339091398066 -0.4149885702788389
-0.13768773327518133 0.4573438019535967 0.4194870355376122 -0.3706024985951607 -0.257758166428153 -0.3939977422779812 -0.2804587869887617 -0.056426710303405195
0.24591737845658146 -0.04575971243483059 0.41336834412310786 -0.3841921171521328 0.4513514143315136 -0.00018479034100575553 0.3099903042347059 -0.31042783380523065
0.4083689897930051 -0.0340482121970298 0.314350094914552 -0.49863357902532157 0.29108259846714657 0.3047754221094279 -0.4545993624444407 -0.19226028632359804
-0.15475341412814234 -0.2767682405873777 0.1506071505921967 -0.2431038672866368 0.3397284333631471 0.3336703415018821 -0.18883682623948472 -0.19615875238786304
-0.32475164901249776 -0.4246227964972416 0.4356328244541012 0.3045292375463359 -0.4949019113269423 -0.5235596725711914 -0.18008331532005056 0.11297996260678919
0.40350817970991304 -0.23892476110486632 -0.23165207878871905 -0.11238252232684968 -0.3220689252764958 -0.12520493027086016 -0.17636297317015376 0.05946104621405669
0.3003339363587043 0.220722623845399 -0.06480023332573293 0.15286461214528024 0.5136053439017184 -0.4255790494303235 0.10859546554558948 -0.4618042451280097
0.1469022676191964 0.2139593702107334 -0.1048681297572233 0.017939115275181695 -0.4378140478008833 -0.36668446557514306 -0.5094094425187677 0.34381555971951705
0.3473829467513139 0.5345659326012071 -0.10169805961915435 0.4421182318495412 0.3003893879966647 -0.13221915300947654 -0.04774477515945299 -0.07034628814425599
-0.09046086242493548 0.27279794261590407 0.247836937278087 -0.5032093399078458 0.41045880978001015 -0.12063342723521879 0.4469242117224695 0.06326073319341821
-0.1084915914614459 0.19703948706495666 0.39966222586681416 -0.2516061556898729 0.2777345390450935 0.5016126672152216 -0.013050627860630094 0.2191254364763445
-0.4988815666849806 -0.3098278511892116 -0.2672466738125419 0.2634480883107235 -0.356762655928653 0.15004349663039224 -0.05769276917710127 -0.31106712981033674
-0.45490705640087153 0.0013225086625031695 -0.012725772671823097 0.32335922553933066 -0.11121029852917971 0.21373805412684801 0.17837334755116876 0.04058219933232009
-0.38523185811625316 0.3874105343659697 -0.050484237553691635 0.12961583560099793 0.3387587079055052 -0.22976661831036263 0.44044433888606593 -0.3689500702226401
-0.27039742187273125 0.2962228199736861 -0.474308255742296 0.23379905542566326 -0.07747446702892634 0.4713868828784643 0.2284072248881366 0.5257210103145127
-0.03361363002780466 0.26688976804478726 0.5144208256142143 -0.3359495604831392 -0.05233821650072422 -0.06028832303972269 -0.25574217126389 -0.22021390093710017
-0.2487281323086882 -0.20326918121885318 -0.14024159163058988 -0.3944200187158231 -0.3681047865623569 0.2086934426213117 0.03320191801196156 0.14086129433928765
-0.19947546643589228 0.18294150815009858 -0.30764834130949775 -0.26950992172639504 0.42438505786409486 0.16522891320852465 -0.47860751384543976 -0.13924376108667716
0.3308503343855657 -0.3875533768737273 0.013414524846398688 0.05655951432841236 0.21043401637124104 0.11009593033466286 -0.2557860966401233 0.06871036167025774
-0.5395561443351874 -0.38314763955498227 -0.01710852003001987 -0.20021026888382557 -0.4574150575771717 0.017151290399419147 -0.28847417692923566 -0.22711410254788394
0.3036785839359934 0.34287327425296554 -0.2611011286544029 0.45008387994331894 -0.26153996928489986 -0.5163216607110057 -0.08016424381826757 -0.0172401561867832
-0.44199021136145167 0.4214523674503609 0.305908207209817 0.1640363395396366 -0.4531602555768329 0.20453003835308817 0.27488571233227027 0.3909800011739273
-0.3355703090218075 -0.1970459957290166 -0.08471489282234074 -0.32521585760887306 0.17478379835062857 0.0732095850806453 -0.2550257960579422 -0.4518510816438749
0.45914946459666106 -0.0026999789397688847 0.40266239229144307 -0.24896720119958152 -0.2808125451232271 0.18347086194938408 -0.15576624002130163 -0.016606083052663503
00000000: 9e7c b374 d9a5 d43f 8c5f 034c b133 dbbf
00000010: b745 11c4 6d4d d0bf 3fc1 37e4 8d29 c3bf
00000020: 74cc 84c9 96be cbbf a13a 521e 4dfb c23f
00000030: c645 4292 6fc4 e0bf 1655 4593 c386 bebf
00000040: 1d54 2e98 2b94 dbbf eb7d 40bd c004 ca3f
00000050: 8a2c 5807 8f23 dcbf 0b56 6044 a0f8 ad3f
00000060: b480 0ac9 5cfc d33f 30d4 9d9d 2450 cf3f
00000070: de8f 222d 35e8 babf c145 7524 56c1 e1bf
00000080: 11f7 72d4 87f7 d8bf 171e 6f5f e614 cc3f
00000090: bbd4 7224 1fc6 d93f 7097 8e6b e805 abbf
000000a0: 59e0 6fea c611 dabf 132a d897 9698 d9bf
000000b0: 95b2 5b32 5120 c8bf ec91 f87e a8ee c63f
000000c0: d25e 6c77 948b c9bf 7fac d273 a191 d93f
000000d0: f08c 85d3 c0ca cc3f 7466 91c7 f345 c53f
000000e0: 5b09 bc61 3d5f dd3f 8068 4ee2 6b97 aabf
000000f0: bf44 4678 b1e4 cbbf f2b6 3244 44e7 dbbf
00000100: 712a 1102 c619 dc3f 2b12 42d0 975a a5bf
00000110: 5799 8081 8538 9a3f 8f92 ee09 e5d6 d73f
00000120: cd45 3b55 5acc df3f 187b 9b67 1d6d dc3f
00000130: d73f 1652 cd88 b33f fefd 03a5 810e c03f
00000140: c233 833a b916 cbbf 2288 bf2f 6e5c df3f
00000150: ee56 d0bd a912 c1bf 8135 da5f 1494 a63f
00000160: 6fc2 a06c 6145 bebf 9f16 d434 daac ddbf
00000170: 2830 c592 5ee0 c4bf df41 90be 8aa3 c03f
00000180: b190 962a 81ef dabf 019a c5d2 c0fb d6bf
00000190: 602d 3286 4e5b d73f c92c 40ee 3af8 ddbf
000001a0: e13c 975e c204 c1bf 0be8 899d f14e cfbf
000001b0: 1e8d 3b54 3405 cebf fdbf 44d5 1d62 c33f
000001c0: 3293 8f00 fe22 e1bf 963f a9f5 cc68 98bf
000001d0: 82bf 5bb4 dc22 c8bf 3c3d e999 b3c2 cc3f
000001e0: b1b5 1973 4af9 d1bf 13cf 6afe c1ef d8bf
000001f0: d252 5a8a f99a dfbf 27ee 6338 2c8f dabf
00000200: 5717 bd6b c09f c1bf e0d0 1af0 1e45 dd3f
00000210: e1b8 ae26 e0d8 da3f f20d d28a f3b7 d7bf
00000220: 717e c51b 1c7f d0bf 7308 724e 4237 d9bf
00000230: 2286 7f69 09f3 d1bf d27b bf36 f6e3 acbf
00000240: ec99 fe7c 387a cf3f 8390 c328 d16d a7bf
00000250: 8e77 cd7f a074 da3f 8d29 a388 9a96 d8bf
00000260: 1ca9 e30a f1e2 dc3f 00e6 45f1 8838 28bf
00000270: 41f8 b092 e1d6 d33f ac8a 7db4 0cde d3bf
00000280: 0f23 f7af b722 da3f df3c bf6b c46e a1bf
00000290: 82c2 49dc 4f1e d43f dc79 a6d0 9ce9 dfbf
000002a0: 5478 36e8 18a1 d23f e469 a5c5 7081 d33f
000002b0: 01ce 9eec 2718 ddbf 682b 0a2d fc9b c8bf
000002c0: aff6 4fba f5ce c3bf 583b 7923 92b6 d1bf
000002d0: 6a2a 2b59 1847 c33f 407c c30b 071e cfbf
000002e0: df39 b453 1cbe d53f b953 19d9 da5a d53f
000002f0: 9450 7d1c ce2b c8bf 8b3e 2ae1 ba1b c9bf
00000300: fc2a f523 bbc8 d4bf adde 0518 052d dbbf
00000310: db0b 867f 68e1 db3f 2efd fb32 687d d33f
00000320: 8e22 f810 79ac dfbf d953 e636 00c1 e0bf
00000330: 7a6c ed56 f80c c7bf c6dc 7f3c 41ec bc3f
00000340: be71 e1f8 13d3 d93f a633 9329 1695 cebf
00000350: df56 397b c6a6 cdbf cb2a 09da 19c5 bcbf
00000360: eab4 47fb c69c d4bf d6d8 6714 b706 c0bf
00000370: 8add fed8 0f93 c6bf b229 c0a1 ad71 ae3f
00000380: 7c88 a2d4 ab38 d33f 499f 7391 a340 cc3f
00000390: c03d e882 bf96 b0bf 1c9a f04e 1191 c33f
000003a0: 957a 6379 746f e03f db9f cae8 af3c dbbf
000003b0: a51f 0395 e9cc bb3f 27a4 7e64 338e ddbf
000003c0: eefb 9089 b1cd c23f 682a dd48 0563 cb3f
000003d0: 7b30 b343 a3d8 babf 2a4e b4a5 a15e 923f
000003e0: ea2f 4236 2505 dcbf af2c e61e c277 d7bf
000003f0: cd88 fc07 154d e0bf 0e7b 36fa 1201 d63f
00000400: 490a dfae 853b d63f 5c7e c203 2a1b e13f
00000410: 6084 2150 e208 babf 8195 b044 aa4b dc3f
00000420: 5ab6 6069 9439 d33f 894e 0aa5 8eec c0bf
00000430: 13bd bacf 0072 a8bf 8d7d f9de 3602 b2bf
00000440: 92dc ae6d 7128 b7bf 9ee3 7c80 8575 d13f
00000450: edd2 2cea 1eb9 cf3f 2f45 3e79 4a1a e0bf
00000460: fc0d 1707 f544 da3f d397 c710 d5e1 bebf
00000470: 99de 4802 689a dc3f 6acc 2ffc da31 b03f
00000480: 7dc8 37dd 1ac6 bbbf 2478 7b04 9738 c93f
00000490: 9dd9 62df 1094 d93f 2a42 8ab4 501a d0bf
000004a0: 9ec5 8a16 67c6 d13f d15b 1e02 360d e03f
000004b0: 5a52 d49e 49ba 8abf b39d b163 4d0c cc3f
000004c0: a04f 5ff3 aced dfbf fbd8 0f32 38d4 d3bf
000004d0: 6156 ffca 911a d1bf f03f df5e 55dc d03f
000004e0: 5973 e908 33d5 d6bf 86a4 8013 a034 c33f
000004f0: aaa3 a919 e889 adbf c957 591b 86e8 d3bf
00000500: 1987 7d7c 321d ddbf 1c6e 10dd 00ab 553f
00000510: 12d4 884b f80f 8abf b748 a3e4 eab1 d43f
00000520: f645 2933 4778 bcbf bd57 31c0 c45b cb3f
00000530: 7deb 1a17 f0d4 c63f fe37 dda5 30c7 a43f
00000540: c624 ff85 a3a7 d8bf 0893 ce8d 55cb d83f
00000550: 2861 83ea 11d9 a9bf 8e99 796f 4097 c03f
00000560: 801e ec00 39ae d53f c181 ad17 fe68 cdbf
00000570: ec55 ce73 3d30 dc3f 21a4 5dc1 e09c d7bf
00000580: 1d6e f7fc 304e d1bf 896a 078f 50f5 d23f
00000590: a9b3 a803 115b debf f8c7 71a0 20ed cd3f
000005a0: 870d 2ade 5dd5 b3bf 1e7d 6ee3 332b de3f
000005b0: e946 88ac 723c cd3f 80de 43de b4d2 e03f
000005c0: d9a9 5643 ce35 a1bf b8eb 58d2 b814 d13f
000005d0: ad9e cca9 2276 e03f ae5c d895 3280 d5bf
000005e0: 3e35 6720 13cc aabf e694 926f 1cde aebf
000005f0: 0255 7269 145e d0bf 7d20 5317 f82f ccbf
00000600: 7d34 eecc 52d6 cfbf 6851 cf7a b904 cabf
00000610: cfd2 cbbc 6ff3 c1bf 346b 5176 2d3e d9bf
00000620: 1a54 f260 078f d7bf 2b5e 797b 77b6 ca3f
00000630: fb3b 0d80 d7ff a03f edcf 3a2e be07 c23f
00000640: 0327 597e 6988 c9bf a4f4 4a99 a06a c73f
00000650: b5f2 25ab 82b0 d3bf f1ca f08a a63f d1bf
00000660: a0fd 1bf2 1f29 db3f 3dc8 4a95 3826 c53f
00000670: 8881 e568 81a1 debf 4d08 0554 bdd2 c1bf
00000680: 77a0 83e1 a62c d53f 1f21 c8ad accd d8bf
00000690: b2a4 0d0c 1379 8b3f c4e7 a260 5ef5 ac3f
000006a0: 70e4 2379 80ef ca3f 3cc7 3534 3f2f bc3f
000006b0: 14d0 f5a5 cc5e d0bf 8c24 4594 0097 b13f
000006c0: c7d0 483f 0b44 e1bf 5d68 5bad 7d85 d8bf
000006d0: 8a2e 0c58 e584 91bf 7df6 9676 7da0 c9bf
000006e0: 727b 3fce 4946 ddbf cf18 669d 1b90 913f
000006f0: 91b3 e964 5c76 d2bf 96a7 732d 1312 cdbf
00000700: 2f0b a04c 786f d33f f6b0 e5be a2f1 d53f
00000710: 033d 2182 e1b5 d0bf d90d 349e 2cce dc3f
00000720: 383b ab23 12bd d0bf b20b df00 b585 e0bf
00000730: 370e 82d5 a485 b4bf 7e2b 004c 67a7 91bf
00000740: a2c5 bc4f 9149 dcbf 4b59 c159 13f9 da3f
00000750: 71d3 6204 0094 d33f 3cd2 d68c 24ff c43f
00000760: fe2a 63df 9300 ddbf 8958 e350 0a2e ca3f
00000770: 77b4 263e ba97 d13f dca6 9bfb d005 d93f
00000780: 3a77 b0e3 fb79 d5bf 7c60 bb9d cd38 c9bf
00000790: 14f6 270e e0af b5bf 6486 242c 56d0 d4bf
000007a0: 96af e4c4 505f c63f 6dd3 ac05 ddbd b23f
000007b0: 7222 6db7 5752 d0bf 9aa6 94cc 20eb dcbf
000007c0: d6c9 9a6f b462 dd3f acd6 e027 441e 66bf
000007d0: be22 8e7b 38c5 d93f b5e4 7641 28de cfbf
000007e0: 1917 672e d5f8 d1bf 6fb7 eb23 f97b c73f
000007f0: 2a2f 5bed 25f0 c3bf b7de 805e 2f01 91bf

module.model1.layers.1.weight f8 [4, 1024]
-0.016356298241928736 -0.0064374229086119235 -0.010559016527548613 0.020756735637519744 -0.008741970971658141 -0.0024025158559537593 0.04897658538901691 0.006925282128931117
-0.010131351062383567 0.02314847744219801 0.04907273720882283 0.010937737539774115 0.007304526697766021 -0.01268114956963965 -0.039605942802651055 0.014659600466009448
0.03691509156567689 -0.00366165704963692 -0.021429040704303504 0.02724189886067616 0.0200198530966854 0.02421073339492129 0.021575555648488877 -0.0161961913385147
-0.010588973583448078 0.002802543450865206 -0.025569668888171627 0.03326221617147981 -0.013718755538248218 0.03501311632710002 -0.03374637138733937 0.02390112585304008
-0.0033981100483276836 0.006430915096970981 -0.014439864740988661 -0.015598859735454506 0.018874985171078457 -0.004022689362637642 -0.009005955996318048 -0.010190561839066282
0.014012578808739892 0.008229659517373365 0.007738635196731759 -0.004529629717438691 -0.014042810075063333 0.008737959333984788 0.012244254689430445 -0.0035815508345611426
0.01755004649062543 0.023817843779870465 0.016075700044559316 -0.0051766150980744816 -0.009068719237403718 -0.007537406310497999 0.03177530070079489 0.028236554884546135
-0.05164689209435721 -0.029334569340499512 -0.017923359703332156 0.0004138158599450905 0.01632798748191754 -0.04367471667600673 0.009349201245332785 -0.007430228562608701
0.010878694774530863 -0.008933585262481537 -0.03824856743688598 0.007838103708480398 0.015765643329450952 -0.008784665051941472 -0.01621041106256242 0.013095275359466979
0.012896760143561151 0.033623233170578755 0.027955669168496226 0.048273989774432244 -0.028245568739598107 -0.02075565735505819 -0.03335356919743076 -0.029569144625476378
-0.019652979390201046 -0.024423606687334516 0.036195001081752644 0.02384014211012833 0.0012501181101041408 0.04804718079441503 -0.04331795342082312 0.02722494016413883
-0.031144603909055126 -0.014032336451701212 -0.012064815878351415 -0.00035945191043710884 0.006784873532957441 0.004672261908123746 -0.019692844522817374 0.026570982023860504
0.042815021851782605 -0.00019000993821716465 -0.022535326458597755 0.03198758171505788 0.003886499342697168 0.016744672195788818 0.021141393196836528 -0.008227421417746713
0.009921340126478467 0.010689666623026884 0.01989273240848989 0.02090554192392604 -0.006396978912552338 0.022510459438246876 0.027230594874194436 0.02332998915509616
0.008750959364706264 -0.025108786502651 -0.019229748521138734 -0.006499849562501773 0.0514363028308324 -0.03912336741277028 -0.004262354232472869 0.01584604907447981
-0.013728180936053555 -0.03663223488483711 -0.0142801785589308 -0.009616622057726234 -0.03465174397089467 -0.0016968315312635822 0.017166098987768146 0.019613704602520685
-0.013007642636487694 0.03913661882165338 0.03713730537355042 -0.05748999109401195 -0.0018129287020677743 -0.027666325329395766 -0.026000942993848104 -0.04131904854126795
0.027821059141461782 0.03279866712640132 0.0060924875594208176 0.020901765743525914 0.010918477201667904 -0.04206885979996577 -0.015455447918099826 0.020820517516657443
0.018380005242249888 -0.01692964254308828 0.035466436048545054 -0.021863585339134652 0.01940929025634361 0.050781961579016856 -0.034181201417852046 -0.06941044719104528
-0.0011010066256070205 0.03334042418602033 -0.0007128015989100833 0.017786123402534788 -0.027228959719714597 -0.0003513753260821342 -0.038397926282067396 0.015816660467733647
-0.020340033984312274 0.02777801749623922 0.013703015466667714 0.0008839390371758145 0.008751978769784214 -0.0010756593632932044 -0.029711930122678174 -0.013224836781807163
-0.021338434101173236 -0.005058868623274293 -0.044236028313563755 -0.013745868801815045 -0.0448777675741613 -0.014607803878627765 -0.018166491338335103 0.00794947134609211
-0.002167405553933686 -0.019800594038041762 -0.0037050740895835012 -0.0020387908746360445 -0.00168426541826985 -0.0521795006892159 0.01391614921800283 -0.004773023689974121
-0.00976879066079113 -0.004312204161184928 -0.034008362636844675 -0.0026649630761582865 -0.016444379017918204 0.0171991902110023 -0.017550315174291002 -0.011454387531762835
-0.03148194446090932 -0.018264278214694674 0.027554706121829975 -0.029672763196196376 0.038843630876516724 -0.03611570591518694 -0.020866592060585904 0.0068753679031980704
0.003086699302516687 -0.012421911151445147 0.01637565555963663 0.0010775004989973806 -0.017641862201665658 0.003985403976352852 -0.03995468994563969 -0.013351583797609475
0.017451038609699362 -0.02402081589277384 -0.04789023431082204 -0.00039691583902516517 0.022000252881585605 -0.010385445430462888 -0.012029610297282355 -0.008881516226986803
0.008941189756538423 -0.022540181871370708 -0.00820738307414697 -0.05309366845822437 0.013961069108695864 0.000508190384814794 -0.011955126341095359 0.012415719938009002
0.02538297530697898 -0.021902007185850083 0.03639839622784584 -0.009037758413147646 0.022610773451456963 -0.022056194844507444 0.022389166165641728 -0.0045937998225133204
-0.026655054896809936 -0.008209768821252844 0.022224648951220595 0.00433241389678966 0.012503317470212945 -0.013523783829661984 -0.00660395405977778 0.019671828079744953
-0.007261487658334878 0.009827496827689906 0.004221188204368404 0.0012214914358102626 -0.04100318984054683 0.01687175106079512 0.010497461371825521 0.02301093327694098
-0.014941355164476429 -0.0033962153582287836 0.04891560303851818 -0.009407798441686852 0.039988911269438744 -0.033920757625365 -0.005976031162687903 -0.008662893221085944
00000000: bd7d 2198 b4bf 90bf f4e2 ce8d 205e 7abf
00000010: 6c59 4f35 f79f 85bf 7480 f0f2 4041 953f
00000020: a625 687b 4fe7 81bf 1e32 f1e0 70ae 63bf
00000030: fbf9 0781 7513 a93f bc39 2644 af5d 7c3f
00000040: 285f d1eb bebf 84bf 5307 4406 3cb4 973f
00000050: 19cb dfd2 0f20 a93f 7f59 3448 8666 863f
00000060: e480 79f4 59eb 7d3f 5415 6b15 93f8 89bf
00000070: 8f17 21ea 3a47 a4bf 406c 9744 da05 8e3f
00000080: 46c1 01ee 88e6 a23f c41e e028 0dff 6dbf
00000090: 1dde 0994 7ef1 95bf 790b c0e2 4ce5 9b3f
000000a0: 1cb1 4899 1580 943f 7ccd 92d0 b2ca 983f
000000b0: 7af7 9c07 e717 963f 0487 7900 bc95 90bf
000000c0: 65b6 e9f9 abaf 85bf 555c f20e 5cf5 663f
000000d0: 2db5 936e ef2e 9abf 2b48 4cc5 be07 a13f
000000e0: cd5c 0733 9418 8cbf efa3 1c3b 3ded a13f
000000f0: ff40 ef52 3447 a1bf a86b 8167 8979 983f
00000100: fd28 d370 5ad6 6bbf cfc1 65a0 4d57 7a3f
00000110: 73d6 91d6 a592 8dbf c66e 5983 4bf2 8fbf
00000120: 25cd 16d0 f653 933f 246a 1274 187a 70bf
00000130: 8686 c9f3 b671 82bf 74fd 9c0e cade 84bf
00000140: 58b2 ba7d a0b2 8c3f 5fea df33 b6da 803f
00000150: 5bc5 5e11 8cb2 7f3f 377f fd37 a98d 72bf
00000160: f074 2110 7ac2 8cbf 3800 960c 35e5 813f
00000170: 33d6 a30b 8413 893f 1a44 8276 0e57 6dbf
00000180: e4ce e1ae a3f8 913f 5414 6270 b463 983f
00000190: 4d87 cef7 2576 903f b8a8 cd08 1334 75bf
000001a0: 847d 54e4 9e92 82bf d0a2 9a19 8bdf 7ebf
000001b0: aa34 a92a da44 a03f 2293 1f1f 0bea 9c3f
000001c0: eb79 f820 7671 aabf e5b8 d69f e109 9ebf
000001d0: 8480 0a4f 805a 92bf 608b c495 ad1e 3b3f
000001e0: 7d32 fab0 48b8 903f fd2e 924f 885c a6bf
000001f0: 414a bd8c ac25 833f 29f2 d9ca 286f 7ebf
00000200: 47fb 3cb2 9147 863f 349d 4e84 c54b 82bf
00000210: e042 85f4 5095 a3bf d081 b978 6c0d 803f
00000220: dd66 006a de24 903f 1ed1 d5c8 b1fd 81bf
00000230: ac43 7945 7699 90bf c34c 351b b2d1 8a3f
00000240: 55de 53d8 9d69 8a3f 39f3 b47d 1037 a13f
00000250: 1e15 4433 69a0 9c3f 8641 a84e 5eb7 a83f
00000260: 7156 f907 68ec 9cbf 7115 3096 f840 95bf
00000270: 27d0 d011 b813 a1bf ee67 8cb4 5f47 9ebf
00000280: 5edf ff1e e91f 94bf d2ce e37f 8002 99bf
00000290: fd80 d9b3 2688 a23f 68ac c7da 8c69 983f
000002a0: 78c8 8919 607b 543f 4ca1 5adc a399 a83f
000002b0: f04e 8b52 c52d a6bf ece7 8fce dae0 9b3f
000002c0: 97ef f1fc 5ee4 9fbf 8115 2c51 fcbc 8cbf
000002d0: 8aca 092d 70b5 88bf d2e2 2633 9a8e 37bf
000002e0: 129f e79e 74ca 7b3f 77f3 7fc1 3823 733f
000002f0: 5c4a c36c 5c2a 94bf 94a5 426b 6c35 9b3f
00000300: 7909 43bd d9eb a53f 70f0 ecf0 ace7 28bf
00000310: 55d3 9328 8013 97bf 3f48 b022 ad60 a03f
00000320: 4975 5472 94d6 6f3f e844 daed 8325 913f
00000330: 8839 7de1 16a6 953f 1168 5bcf 89d9 80bf
00000340: 3078 01bb a351 843f 5a89 68c4 76e4 853f
00000350: 047c 7dac c25e 943f e642 792b 4368 953f
00000360: a1d3 8ff3 b733 7abf d3ba 6b5c fb0c 973f
00000370: c0bc bd49 56e2 9b3f 32aa bf11 d1e3 973f
00000380: be84 3de2 05ec 813f 190a 7c23 1eb6 99bf
00000390: 30cd 0894 f6b0 93bf 443f cc14 969f 7abf
000003a0: 999d f8ec db55 aa3f e82f 185f fa07 a4bf
000003b0: dfdd 8400 6775 71bf 77cc 2e5a f239 903f
000003c0: c53a 3b41 851d 8cbf 9d99 9ed5 75c1 a2bf
000003d0: 7318 221f ed3e 8dbf 612d e329 e1b1 83bf
000003e0: 626e 3596 dfbd a1bf b514 c0fb 06cd 5bbf
000003f0: 6b6b 0267 fd93 913f c9f0 486f 9d15 943f
00000400: 472f c63d c0a3 8abf 6a7d d403 b709 a43f
00000410: 40f9 1430 a903 a33f ab35 31ff 536f adbf
00000420: d226 105f f9b3 5dbf 6c04 f6a9 8f54 9cbf
00000430: f581 4bbf fd9f 9abf b987 5f34 c527 a5bf
00000440: f452 9cac 1f7d 9c3f bd10 52a5 fcca a03f
00000450: fa9e 1aad 6ff4 783f 2d3a 30c1 4567 953f
00000460: 6aba 0634 6d5c 863f 6fae 0ab2 0c8a a5bf
00000470: 3e7f d31a 1ba7 8fbf d683 4747 f951 953f
00000480: 17c0 a945 35d2 923f 05de 3814 0156 91bf
00000490: 614c de1d a828 a23f 7701 0560 6863 96bf
000004a0: b8ea 8e6b 07e0 933f 65ce 6ae0 1700 aa3f
000004b0: 4b90 74cc 3280 a1bf b0af af10 e2c4 b1bf
000004c0: e640 c7dc f409 52bf ee06 07ff fe11 a13f
000004d0: 5c44 26c7 695b 47bf 5595 5889 8636 923f
000004e0: 3a48 008e e8e1 9bbf faaa bd88 1907 37bf
000004f0: d03c 3b9b e4a8 a3bf ba6e c31d 3e32 903f
00000500: ff70 0c93 04d4 94bf 84b8 c632 d771 9c3f
00000510: 6e90 499a 5310 8c3f de59 cfa0 04f7 4c3f
00000520: 5769 bbb4 8eec 813f 71e3 5d72 a49f 51bf
00000530: e935 b6e0 cd6c 9ebf 2f4b c88b 9f15 8bbf
00000540: 6b16 7312 bed9 95bf 66e6 aab4 9bb8 74bf
00000550: 8ec8 d2cd 1aa6 a6bf fbd4 ab47 cb26 8cbf
00000560: 92d6 1800 38fa a6bf a594 663f b2ea 8dbf
00000570: d490 b998 3c9a 92bf 6e9a 9dfb cf47 803f
00000580: fc00 15ff 60c1 61bf d6cb 565f 9b46 94bf
00000590: ac98 6881 1a5a 6ebf 8482 2884 a7b3 60bf
000005a0: 7084 e938 5298 5bbf 69ad f681 45b7 aabf
000005b0: e27a 38ee 1180 8c3f 006e 6cca e08c 73bf
000005c0: a8cb 46e3 a801 84bf f211 897d aca9 71bf
000005d0: ccaa a14a 8b69 a1bf 2e8d 3a28 d5d4 65bf
000005e0: e806 5798 cbd6 90bf 0f50 e51d aa9c 913f
000005f0: ee10 d5b6 b5f8 91bf 2ece c1de 6575 87bf
00000600: 3c89 bfc3 661e a0bf 80f8 77f6 deb3 92bf
00000610: 409c 9306 4d37 9c3f bed8 096e 8962 9ebf
00000620: ba89 8bf8 4fe3 a33f 4a2c 8eff c17d a2bf
00000630: b5b0 ea49 0d5e 95bf e6dd ac84 5829 7c3f
00000640: d815 d211 4749 693f e3b6 31b1 a870 89bf
00000650: c819 51a4 c7c4 903f 8240 e559 5da7 513f
00000660: c669 c954 b510 92bf 9927 d6bb ff52 703f
00000670: d4d4 46ed f074 a4bf fe93 153e 1358 8bbf
00000680: 8c87 7060 afde 913f e315 bbaa e998 98bf
00000690: fc54 539c 1185 a8bf e8b2 418c 2403 3abf
000006a0: 6743 85fa 3b87 963f a46a d3e3 f644 85bf
000006b0: 8cce 7bf6 faa2 88bf 64d3 deed 7830 82bf
000006c0: abb9 bb2c c24f 823f 1508 efff c514 97bf
000006d0: 9b17 1d4f 08cf 80bf fe33 4ee3 172f abbf
000006e0: 3890 e9f9 9e97 8c3f 6729 9d8a 02a7 403f
000006f0: 2186 3ce5 ed7b 88bf e468 b8b8 696d 893f
00000700: 424c 46a3 fefd 993f 17e7 51d2 7a6d 96bf
00000710: 46d4 d982 cfa2 a23f 274a 8266 6382 82bf
00000720: 128b 0b52 4727 973f b21d 202e e695 96bf
00000730: 0d54 dd81 2fed 963f a475 08c0 f2d0 72bf
00000740: 5633 3874 764b 9bbf 1d90 c284 48d0 80bf
00000750: 4a6d a4f1 0ec2 963f acbc fd7f ddbe 713f
00000760: 0431 02dd 569b 893f 6df0 218a 5bb2 8bbf
00000770: 1663 606b bf0c 7bbf f528 0509 da24 943f
00000780: 6aa8 34c0 38be 7dbf 7fd0 cf4b 7020 843f
00000790: 47be 9b94 3c4a 713f 67bd 3971 4e03 543f
000007a0: 0d2d cbbe 5efe a4bf 2b25 210c d446 913f
000007b0: cc9c 436a b17f 853f b0e5 7f97 2d90 973f
000007c0: 2495 50be 9299 8ebf 36ba 993c 61d2 6bbf
000007d0: 320d a146 770b a93f d242 1355 6544 83bf
000007e0: 85b3 3534 6d79 a43f d71e 50c1 0f5e a1bf
000007f0: b63b 75a6 527a 78bf 8720 96d8 d9bd 81bf

module.model1.layers.1.bias f8 [4]
0.00031674211899308775 -1.7322102058166873e-06 -0.0001234614766085157 -6.55219151838977e-11
00000000: fbdc d60a 0dc2 343f 2e18 5743 c90f bdbe
00000010: 1f17 3a02 ae2e 20bf 7077 27e4 b102 d2bd

module.model2.layers.0.0.weight f8 [1024, 4]
0.3394578858110193 -0.3989911290392361 -0.40919435196730475 0.5008998160462165 -0.35281973193596056 0.3825156852116235 0.2177033494114901 -0.09695913647436605
-0.49085375846631246 0.06846440241111855 0.3488521688720697 -0.10533670263378812 -0.23523337529211147 -0.15946176114567176 -0.4147824658794077 -0.39659010883217316
0.0990738904431537 -0.32317775800160087 0.4663673172508133 -0.37411308943388616 0.4044566728692472 -0.4399986745610961 0.08221935412361363 0.3322733068785567
0.4401465484066754 0.47403710478135447 0.26164109680306674 0.12777220689893867 0.03197070193788166 0.33022581367053605 0.45487059378875694 -0.4608243164306733
-0.3338442016456363 0.12225908787620586 0.4909953472744634 0.19385732181140367 -0.4093711264585473 -0.4644188797101308 0.14794190479993222 0.3809482886650752
-0.19079727522787085 0.4863170194809715 -0.4675258470317745 -0.3391793691316575 -0.30798462905409 -0.025500451184512607 -0.2211718561499206 0.12679488761268254
0.38063734298226043 0.032653343912285235 -0.4431667690724732 -0.09083702325980413 0.028617744135594363 0.4049032687029497 -0.42907171984917913 -0.18553369205516357
0.09169374423987267 0.28201468816414227 -0.4839446925823919 -0.3222088990999928 -0.4674204899742815 -0.2907966743096307 -0.16572344564863062 0.3133431771367533
-0.22364086188781646 0.17249687692165405 0.4585687813674658 -0.07372944526247119 -0.32381926411774153 0.17824371712050494 -0.0158927022072014 -0.0854233261209601
0.06045275761939025 -0.5029090155056394 -0.5073505786615097 -0.22923801489544668 -0.0827047646522048 0.526854317878294 -0.2986664310513794 0.13195636556182952
0.30056849035301464 -0.04425788765719865 0.04237834014442875 0.4845108211743337 0.47645527493077033 -0.19317492045420115 -0.15065253797734357 0.4356694531163877
-0.1938270674822906 -0.4788666884597873 -0.3644765855537922 0.03180818641569199 0.2817755090157486 0.2821948307791366 -0.32892885289461077 0.3210882394191676
0.33454227466423364 -0.25190003038064784 0.1292277809292361 -0.42208804151550805 0.22193456533799436 0.45949794897992674 -0.4043472869403917 -0.201496202813726
0.16890819805610524 0.2727841622059141 0.040701295862732544 0.08682769396770582 0.35389067967622123 -0.527534801748765 0.3625655679708922 -0.16613227849378193
0.3723615226322845 -0.2502725268580652 0.3873521568533006 -0.2753064663993649 -0.10306053577360466 -0.020697235043119433 -0.1155362795373846 -0.31199505521627074
-0.14067983827925354 0.2531307696409668 0.40950724865532634 -0.03184083107816667 0.27477877907421466 -0.0021205741690571733 -0.4511159221772252 -0.25082359121529463
-0.30893523101147097 -0.3722771207625964 0.4717772473158216 -0.31419475841925365 0.11756232412062317 0.30833846478169313 0.27902976151275105 -0.13258321629809613
-0.3589507388295954 -0.45153391733408466 -0.218240694326301 -0.16025971594410193 -0.17961538161341103 -0.20679064558047935 0.0017064530077597882 0.24259553590040386
-0.2019574913212262 0.05735918979119637 0.007360005483196487 -0.25785748299812494 -0.3481475273698763 0.1251641243056284 0.21592657017032374 -0.38921267551905175
-0.29442661016353655 -0.4946200037640001 0.2267808929628049 0.3467751687228852 0.3859934932803119 0.1496426093886549 -0.1139819617406458 0.3783031337502426
-0.37835049665688386 -0.07857030891169028 0.32811532400851523 0.4328146831243386 -0.4117092849076033 0.12184895655413441 -0.07353905025295142 0.36785272388741275
-0.11976104296373266 0.3472614473618691 0.290996531959061 0.0827580816443164 -0.13259476055106387 0.07786361929306439 -0.3981895265073952 0.2892276278523635
-0.23889507593564493 0.05949272533546727 0.3197481211680677 -0.005493022079378051 0.05161618093730986 0.3296950788409733 -0.3151788202700676 -0.24218157782894983
-0.4089222654285893 -0.433072525796316 -0.13070200141873323 0.009728034688438955 -0.1541814882807214 -0.14174358513796648 0.024910976566571142 0.2649879597376721
0.40653637896888495 0.06697746855733124 0.29424459778950385 0.4616193191759531 0.10005479942601583 -0.17558299566615543 0.03527775263858547 -0.0316864063682387
0.05961398013713019 0.3958848773864121 0.4420622762263683 0.11729631500566831 0.13673281800319076 0.4554574170888283 -0.26333085712653204 -0.013399686804024546
-0.22967730657675617 -0.4629729854941219 -0.43667253987989607 -0.2844499524144158 0.26549910528062415 0.4203961649684701 0.42392102484950744 0.39060496843760123
-0.31303033088532817 -0.029910047570614537 0.033728868001073414 -0.3029710224597271 -0.10508103602196193 0.30000748969494856 0.35736782457876975 0.1400887662918124
-0.3013276812209078 -0.3781753944012573 -0.2582751383612283 -0.39842301845518385 -0.30354302755689205 0.015473580799740925 -0.32044530300961865 -0.3874313937696118
-0.3635884230532026 0.3900647429100262 -0.2501712159699705 -0.26506309091090086 0.03068816197420765 -0.19863781513672749 -0.42076745846317154 -0.04187968563597405
0.10372812936471079 -0.2593180836273174 -0.2513737099766539 -0.3452452095432438 0.2668681924249279 -0.34915867240302395 0.3534973605062486 -0.34102497683418553
-0.2510290301371039 0.15008662808106257 0.4429833085516752 0.39495087770469334 0.37405083464302674 0.28552060308539556 -0.044516615988328956 0.2798575358787196
00000000: 4c5e 7b91 adb9 d53f 5587 a716 1289 d9bf
00000010: 4514 da81 3d30 dabf 95b5 0f0d 5f07 e03f
00000020: 9919 8336 9994 d6bf 9638 8c11 237b d83f
00000030: 7edb f90e b4dd cb3f 80af 3460 50d2 b8bf
00000040: d1d0 eee1 256a dfbf 93c2 4b11 e286 b13f
00000050: ea6d 1c0c 9853 d63f cf6e e19c 58f7 babf
00000060: 0a56 e792 201c cebf 13a7 8a34 3e69 c4bf
00000070: b000 7ac1 cb8b dabf 1e7b d67a bb61 d9bf
00000080: c640 570f e85c b93f a855 5ac3 f1ae d4bf
00000090: f3fd e04d f6d8 dd3f abf0 0707 78f1 d7bf
000000a0: 31d5 a73d 9ee2 d93f 027d 6133 f028 dcbf
000000b0: 5325 0fdd 530c b53f 9a23 9842 f743 d53f
000000c0: 25a7 b66d 5c2b dc3f a317 88b9 9f56 de3f
000000d0: 6dc2 834c babe d03f f1fd fbf4 d65a c03f
000000e0: 21b9 81be 765e a03f e4a2 8073 6b22 d53f
000000f0: 2807 0f8d 991c dd3f ef5c 1146 257e ddbf
00000100: 41be 0112 b45d d5bf 172d 1120 5f4c bf3f
00000110: 030c c2bf 776c df3f 7f93 a214 51d0 c83f
00000120: a73b 04f4 2233 dabf 81ff fff6 09b9 ddbf
00000130: 816d 69a5 c2ef c23f 9327 52ee 7461 d83f
00000140: c982 a28c 0b6c c8bf 862c 8a6b d11f df3f
00000150: 9d50 c287 f1eb ddbf 137f 7962 1db5 d5bf
00000160: 0150 5d29 05b6 d3bf a09f 7b4f ca1c 9abf
00000170: bbd1 7a00 5c4f ccbf 0859 cc9b d03a c03f
00000180: 6fb0 efba 5c5c d83f 0ea7 6a68 f0b7 a03f
00000190: c4c6 f526 d85c dcbf afb6 2a5c 1841 b7bf
000001a0: be37 974c f84d 9d3f d0d9 4766 efe9 d93f
000001b0: 3401 193b e975 dbbf 986e d769 91bf c7bf
000001c0: 020f c2c0 3d79 b73f 3706 aa55 870c d23f
000001d0: 96b4 ed28 f3f8 debf 2556 0713 129f d4bf
000001e0: 93de 7aa1 37ea ddbf e181 7ca7 699c d2bf
000001f0: fce2 9e05 6d36 c5bf a688 8e8a d00d d43f
00000200: 16c0 ed85 43a0 ccbf bc33 85ae 6014 c63f
00000210: 5626 bcdf 3059 dd3f aa8f 27d4 eedf b2bf
00000220: c4d4 4c6f 74b9 d4bf 7101 e0ab b0d0 c63f
00000230: 9f65 e630 2d46 90bf 044c 0198 4dde b5bf
00000240: 9b49 dbf1 a9f3 ae3f 99ba cea5 d417 e0bf
00000250: c9a6 de47 373c e0bf 6fea 7cd8 ab57 cdbf
00000260: a293 67b3 232c b5bf ab65 2196 fddb e03f
00000270: 71d6 71ce 591d d3bf 6325 4b39 f2e3 c03f
00000280: f58d 119f 833c d33f a4c9 2748 f8a8 a6bf
00000290: ae4a f521 9db2 a53f 991e e0ac 3902 df3f
000002a0: f265 f543 3e7e de3f 8c0c e1ae f4b9 c8bf
000002b0: 0007 d615 9548 c3bf de11 4021 02e2 db3f
000002c0: 3f40 f549 53cf c8bf e607 8577 c0a5 debf
000002d0: 451f c799 9553 d7bf 370a cda0 2949 a03f
000002e0: 4554 0225 9c08 d23f 3ffc 52e8 7a0f d23f
000002f0: 5729 799a 2b0d d5bf efdf dbaf b58c d43f
00000300: 43fd 3300 2469 d53f 9929 164e 211f d0bf
00000310: 3eb1 6932 898a c03f 02e0 958f 7d03 dbbf
00000320: c344 fd11 5a68 cc3f c5a9 dc15 6a68 dd3f
00000330: eca8 6871 d3e0 d9bf 9233 ada8 a0ca c9bf
00000340: 8cb0 56a9 c89e c53f 5fa2 e2b3 4b75 d13f
00000350: 5340 45dd ccd6 a43f f677 faf9 563a b63f
00000360: a663 e417 25a6 d63f c568 20aa 90e1 e0bf
00000370: 29cd 4536 4634 d73f be6a 788f d243 c5bf
00000380: aca4 7f6c c5d4 d73f bc54 7c0f 7704 d0bf
00000390: 4a14 6eb3 60ca d83f 8f01 6403 9f9e d1bf
000003a0: 1ae7 a7de 2c62 babf 10e4 82ee a731 95bf
000003b0: 2c55 1d1e c993 bdbf e9b9 aa1b baf7 d3bf
000003c0: dfd7 4e04 cc01 c2bf 6408 4e66 4b33 d03f
000003d0: b3c5 1ce4 5d35 da3f cafd 5000 714d a0bf
000003e0: 448c 70bb f995 d13f c512 8e96 2a5f 61bf
000003f0: 2430 1d51 15df dcbf 0a70 5564 7e0d d0bf
00000400: bbb1 7146 98c5 d3bf 795c ae6a 63d3 d7bf
00000410: 92f9 0d32 9931 de3f 670f ff54 c41b d4bf
00000420: 00ff 5681 9018 be3f a084 9541 d1bb d33f
00000430: 60b5 13a5 9fdb d13f 3dd9 ffa0 7cf8 c0bf
00000440: 487b 0985 0cf9 d6bf b004 ff83 eee5 dcbf
00000450: 7cd6 64a2 4fef cbbf 384f 6cef 6383 c4bf
00000460: 3baf f106 a3fd c6bf 7985 f1a9 1d78 cabf
00000470: fa40 12f7 61f5 5b3f a585 6cda 5e0d cf3f
00000480: 5414 343a bed9 c9bf 3176 8e08 2f5e ad3f
00000490: 8250 946d 8625 7e3f 665f 20ac bc80 d0bf
000004a0: 1a29 0f91 0c48 d6bf 3438 43c6 6005 c03f
000004b0: da07 9c5a 7ba3 cb3f 4dc0 2248 dce8 d8bf
000004c0: b65e 6eb5 e2d7 d2bf 2148 07a9 daa7 dfbf
000004d0: a403 5103 2807 cd3f fbb2 2e7a 9031 d63f
000004e0: 23e5 860d 1eb4 d83f b7c8 b430 7d27 c33f
000004f0: 298f 02fe eb2d bdbf 6e9f db58 1e36 d83f
00000500: 6144 6400 e536 d8bf 125b 360b 2f1d b4bf
00000510: 8bb6 7b6a d7ff d43f 4ad9 4f5b 3cb3 db3f
00000520: 1ed0 88e6 7159 dabf b8a4 7343 7e31 bf3f
00000530: 43b9 d087 74d3 b2bf 38d2 b526 e68a d73f
00000540: 8634 dde2 a8a8 bebf b32c e513 8839 d63f
00000550: 97de 00eb af9f d23f 875c 2436 a22f b53f
00000560: db08 1878 ddf8 c0bf af72 69c2 deee b33f
00000570: 0d60 7dec ef7b d9bf 936f ae98 b482 d23f
00000580: 07d6 2825 1d94 cebf 35dc 549b d475 ae3f
00000590: 78f4 d7d2 c076 d43f e680 fee2 d97f 76bf
000005a0: 99ec 23a2 6f6d aa3f 378b 5163 b919 d53f
000005b0: 54ea 5cc9 e32b d4bf ca08 3c52 ceff cebf
000005c0: 37cf 274b c82b dabf c1d7 c5d3 75b7 dbbf
000005d0: 08bf ceda d7ba c0bf 78c6 bab6 4aec 833f
000005e0: 2b3b e810 38bc c3bf 00ed 4a5f a724 c2bf
000005f0: 3dcd a856 4382 993f 600d 3a0f 90f5 d03f
00000600: 548f 1329 b104 da3f 81c9 0575 6f25 b13f
00000610: 3cf5 214b e7d4 d23f 1200 c4c1 2b8b dd3f
00000620: 2ab3 57fb 309d b93f 2857 0fec 8079 c6bf
00000630: 42dc b7f3 ec0f a23f bda0 285e 3339 a0bf
00000640: 7690 253e b985 ae3f 50c2 5686 2d56 d93f
00000650: 2601 cc92 bf4a dc3f 4202 e49c 2107 be3f
00000660: 3e8b ce02 7680 c13f 5f7f c7dd 3626 dd3f
00000670: ecb5 d8aa 69da d0bf 26a7 cc84 4b71 8bbf
00000680: 52b5 30e4 1066 cdbf 363d e871 59a1 ddbf
00000690: 301b 7661 71f2 dbbf b9fe bd92 6d34 d2bf
000006a0: ec0a 93f5 effd d03f 4ed1 f950 c5e7 da3f
000006b0: 2230 74a6 8521 db3f 150e 46fb abff d83f
000006c0: 2cbf 735e b008 d4bf 5ce5 8c50 bda0 9ebf
000006d0: dccd fd01 e944 a13f d569 4692 e063 d3bf
000006e0: 57e5 243d 97e6 babf 01df 329d 5233 d33f
000006f0: c157 cd4b 1ddf d63f 3752 e1be 6dee c13f
00000700: c04a 0ee6 f348 d3bf 43bd c691 0634 d8bf
00000710: 0c68 2872 9487 d0bf 8945 8f42 c37f d9bf
00000720: 8d48 12bc 3f6d d3bf 3f2c e5db 9cb0 8f3f
00000730: e151 2504 2d82 d4bf 9ec9 6b0b adcb d8bf
00000740: 16ef 8d60 0845 d7bf e9c1 871c d2f6 d83f
00000750: fc75 bf21 ce02 d0bf 14b2 b52e cbf6 d0bf
00000760: c0db 36b0 b76c 9f3f fb6c e1c3 f66c c9bf
00000770: c880 54a2 daed dabf c8b6 5810 4171 a5bf
00000780: e2f3 4b3b ed8d ba3f c734 1ce0 aa98 d0bf
00000790: 7721 dbc1 8116 d0bf 86b0 055d 7f18 d6bf
000007a0: 5cb1 b353 5e14 d13f 2f7d c59d 9d58 d6bf
000007b0: ac2f a664 b39f d63f 98ce a76c 5ad3 d5bf
000007c0: f944 b210 dc10 d0bf fd68 96e3 0936 c33f
000007d0: 08d0 b9a9 d659 dc3f 6d29 d10b e046 d93f
000007e0: d954 75e9 72f0 d73f 8b80 2535 f845 d23f
000007f0: 38d0 98c3 e1ca a6bf 0bd9 0895 2fe9 d13f
