notebooks/checkpoint.model (torch_old, 149352 bytes, 8 tensors)

module.model1.layers.0.0.weight f8 [1024, 4]
000000 46 84 bb 45 17 ff d8 3f cf 3f 84 ea 76 dd a6 bf
       0.39056951341450874 -0.0446583901667733
000010 74 b9 07 0f e2 76 dd bf 42 5f a2 f0 b4 fb c8 bf
       -0.46038104503431687 -0.19518148183555623
000020 03 8c 85 3d ab da db 3f 3f 93 b2 4f 0f 78 d4 bf
       0.4352214909360443 -0.31982786925282264
000030 e3 e4 78 5c 75 b5 c1 3f cd f4 40 42 dd 67 d7 bf
       0.13835017218824594 -0.36571437330333084
000040 b1 bc 41 d4 2f 64 c4 bf b9 04 e2 e6 f2 90 dc bf
       -0.15930745948887684 -0.44634697482258506
000050 de 60 53 d4 9b a8 d1 bf aa 3f c7 0a 37 73 b4 3f
       -0.27591605887347537 0.07988304150717221
000060 8a 15 3b 0d 6e ee 94 bf 81 a7 08 94 f6 c2 d3 3f
       -0.020440787847083842 0.30877460915018423
000070 e9 e8 09 52 93 7c d6 3f 04 ad 10 ad ad e0 d8 bf
       0.3513534833106307 -0.38871328259365634
000080 3d 85 2d d1 5d 6c d9 bf a4 8c b4 fb 42 b8 a5 3f
       -0.397239164614877 0.04242142984937772
000090 78 41 86 b8 44 ca 8a 3f ac c2 1b d3 16 c8 a7 3f
       0.01308110893367663 0.04644843413359942
0000a0 56 5b a4 59 43 5d b8 3f 89 c4 6e 01 26 6e d6 3f
       0.09517308176542136 0.35047292842779904
0000b0 a0 c6 fd 2b d4 87 d9 bf 2b d0 f3 db 52 86 c9 bf
       -0.3989153318026215 -0.19941173305380863
0000c0 bc 54 ff 18 bd 40 b6 bf 9a 11 74 bc 85 c7 e0 bf
       -0.08692533359802018 -0.5243557625513404
0000d0 99 01 a9 c1 b4 30 d4 bf 44 44 29 25 40 1c a8 bf
       -0.3154727832043363 -0.047090534721640626
0000e0 0a a0 71 9a 49 b6 dc bf 98 1e d4 16 de a9 c1 3f
       -0.4486259468308168 0.13799644579579673
0000f0 e7 6d dd 1e c0 34 d1 bf 90 3a 53 25 f1 ee d5 bf
       -0.26884463323741986 -0.3427088608267832
000100 80 27 d5 16 09 60 e0 3f a3 dc 98 66 5e 1c cf 3f
       0.5117230840635187 0.2430532456362232
000110 e2 a2 f6 ce 4a 40 d6 3f 2a 86 a2 0e 71 58 9a bf
       0.3476740857245614 -0.025728003042450855
000120 a7 02 6e 99 5c 5c d2 3f 52 65 5f 9c 57 ad bc bf
       0.2868873117768466 -0.11201999252025033
000130 35 d7 04 93 49 cd cd 3f 64 84 17 c2 b2 8d d0 bf
       0.23282737425477654 -0.25864857630046445
000140 51 ec 6b e9 b3 da be bf 40 ea 71 4e 1f 58 b4 bf
       -0.12052463959473526 -0.07946963944588337
000150 b2 e1 e5 24 50 d2 cb 3f af bb c8 cf fc c3 df 3f
       0.21735574533137264 0.49633713046471944
000160 a9 25 33 9d 0b 92 dc 3f 64 97 bf ce 4c bf ce bf
       0.44641390182058643 -0.24021301360260872
000170 f1 c1 87 3a 4b e2 d2 bf 81 65 07 79 fa 17 d7 bf
       -0.29506188121652516 -0.36083852595546523
000180 da a4 d3 b6 68 81 cc 3f c5 f3 53 d3 13 33 dd bf
       0.22269925047957068 -0.4562425197362326
000190 ae a0 62 b5 03 3b de 3f bd 18 21 e4 7f 39 de bf
       0.47235195840267863 -0.47225949552774776
0001a0 e5 ef d5 4d 26 2e d8 3f 20 25 07 ec f5 5b ac 3f
       0.3778167495836427 0.055389103948593865
0001b0 64 53 41 9f 6d 68 df 3f 5e 58 c1 7b f5 3f 91 bf
       0.4907487921930651 -0.016845546415730765
0001c0 ad 25 7e 94 bd df c4 3f 1c 09 3e e7 fe 2b c0 bf
       0.163078019624931 -0.12634264269952034
0001d0 91 65 2d 11 f8 fa df 3f 5c 94 43 21 f8 1c d1 bf
       0.49969293286775335 -0.26739314316211504
0001e0 ce 10 cc f2 dd 6d d0 bf 36 c7 d5 14 f4 2a d3 bf
       -0.256705748659681 -0.2994966700999727
0001f0 ba 68 32 ef 0d e2 d9 bf 22 fa b7 59 b7 b0 d8 bf
       -0.40442226752351085 -0.38578590165698945
000200 92 68 97 cb 39 6e bb 3f 22 05 dd b8 de 24 c9 3f
       0.10715066166395307 0.19643768335849027
000210 e6 37 e0 5f 87 3d c4 bf c9 3f 43 a1 e4 fc b5 3f
       -0.15812771016538746 0.08589009224965517
000220 ee f3 f3 21 a8 97 c0 bf 8b 41 81 03 55 89 d5 bf
       -0.12962819726808966 -0.33650708524967204
000230 14 6b 1b 38 48 a3 b4 3f f6 c8 a5 9f d4 dc ca 3f
       0.08061648721506415 0.2098642138985906
000240 eb 5b 20 4b dd 5f a0 3f 64 85 35 68 0a 4a e0 bf
       0.03198138753958076 -0.5090381656010945
000250 9e 1a a2 e3 43 70 d9 bf 56 55 5d 1a f4 80 d0 3f
       -0.39747712354475506 0.25787069868723245
000260 24 19 1a 2d e6 1d db bf 22 70 e6 2b d1 6b cd 3f
       -0.42369989780890394 0.22985281604349078
000270 52 6e 66 ec 9c d5 8f 3f ad 0d 56 87 45 c4 d7 3f
       0.01554415317951122 0.3713544675485661
000280 89 fc d3 f3 ce 1c d2 3f c0 8f b3 a7 7d 2f cc 3f
       0.2830083256848828 0.22019930542512434
000290 0e e3 e7 90 db 2a a5 bf 7d d7 0f 3d 1d d1 ca 3f
       -0.04134260314817172 0.20950665933167648
0002a0 cd ad 02 a2 80 b2 bb bf 23 49 87 22 6d 2b c7 bf
       -0.10819248156865698 -0.18101276575050304
0002b0 01 4b 50 f7 0b e7 b1 3f 9a da f2 6d 6b 18 d4 3f
       0.06993174350672506 0.3139904569356219
0002c0 4f f3 17 14 f1 59 c5 3f e8 8b 58 ff 38 75 c3 bf
       0.16680730324869805 -0.15201485126553327
0002d0 e1 c1 45 e1 76 6b b4 3f 18 28 c1 33 f6 3f de 3f
       0.07976477622810975 0.47265391401435997
0002e0 ad b2 4c 88 9f f1 d5 bf 76 39 15 b2 87 77 a4 bf
       -0.3428725081492228 -0.03997444199432014
0002f0 10 db 23 c9 83 9c a0 3f 55 ce 08 65 a5 34 be 3f
       0.032444113066892766 0.11799081532154194
000300 f4 b9 86 bf ac ec cb bf 5c 13 e4 c8 57 5d d4 3f
       -0.21816024162167447 0.31819719904188104
000310 d9 a9 d6 15 d2 7c ba bf c4 54 a2 3e cb d3 cb 3f
       -0.10346711190383164 0.2174009376364322
000320 64 00 0b 00 3e cd d4 3f e8 f3 76 1e 6a d1 cf bf
       0.3250269890231776 -0.2485783241990298
000330 ef d9 22 a8 ed 84 d5 bf fc 17 c9 58 2a e5 db bf
       -0.3362383024172279 -0.4358621470495334
000340 63 48 9c 14 e3 1a e0 bf e3 cd 74 28 6f be db 3f
       -0.5032821085499218 0.4334981818276146
000350 0a 99 06 72 19 f4 cc 3f d7 6d 85 a1 5f 66 cd bf
       0.22619932239212687 -0.22968669306543063
000360 f7 73 cc b7 34 44 df 3f fa 01 a3 5f 4e 14 cc bf
       0.48853795956694007 -0.21936969442141657
000370 83 6a a0 46 fd 11 b9 bf 61 d3 26 12 5a 05 b8 3f
       -0.09793074583323329 0.09383166258960564
000380 35 20 a4 31 00 76 dd bf 7f 87 d6 6e e0 d5 d1 bf
       -0.46032719466939237 -0.27867899726890494
000390 ba 0f 9d cd e4 fa d1 bf cf 0e 8a 37 59 10 ce 3f
       -0.2809383399910491 0.23487391673926658
0003a0 c6 ab 5b e4 82 b7 ce bf 3e cb b3 06 31 aa de 3f
       -0.23997532034203867 0.4791376653148979
0003b0 72 5c ed 98 82 89 d8 3f 93 7c 06 f3 8b 07 cc 3f
       0.38339295324607925 0.21898030630561446
0003c0 46 a9 87 a7 9c 43 d5 bf 8e b0 c8 0b 43 9c c8 bf
       -0.33225170479149246 -0.19226873469722644
0003d0 0d 8a df e1 62 8c d1 bf 76 41 3a 28 9b 7e d9 bf
       -0.27419349725656234 -0.39835242203209675
0003e0 b8 a3 e9 d2 05 63 a4 bf 93 40 f2 65 96 e0 d3 3f
       -0.03981798362367023 0.3105827327317538
0003f0 a3 fe ae 39 84 0d de 3f 43 9d 27 9a 21 ce df bf
       0.4695749820057051 -0.49695625356840284
000400 8c 42 78 2d 41 3f e0 3f 50 e6 93 b2 d0 6e dc 3f
       0.5077215087968212 0.44426362456542723
000410 b0 e0 81 7c 8f b5 d5 bf f4 0c 11 73 f2 cb c6 3f
       -0.33920657309455304 0.1780989705895092
000420 44 60 bd b8 2a 28 a9 3f 34 50 c0 6d 09 35 e0 3f
       0.04913457398532775 0.5064742225245085
000430 19 2f 98 92 54 ca ba 3f ad 2a fd 86 ac 2d c4 bf
       0.10464981631247063 -0.15764385787254778
000440 c3 00 69 49 4b 5a d0 3f 16 bd 8e cb a3 5a ca bf
       0.25551111382447916 -0.20589110793432813
000450 29 0f 0b e1 bc 3d d4 3f 2c e6 81 61 70 a1 b2 3f
       0.3162681768119336 0.07277586346199233
000460 4e f6 05 4c e6 dd 89 3f 08 0d 66 ca d5 22 c1 bf
       0.012630271143957785 -0.13387558348413386
000470 98 96 20 78 e3 8c d6 bf 59 a6 0b 85 31 3b d3 3f
       -0.3523491547697204 0.3004878806374101
000480 28 37 9a ca 7b 98 c4 bf 0e 04 5c 45 8a 92 da 3f
       -0.16090342896171106 0.41519409917242533
000490 c5 fc 3d 60 ab 8b d7 3f e9 20 7d 16 3d d7 8e bf
       0.3678997459282523 -0.01505897259598084
0004a0 61 be 9d 6c 6f dc b1 bf e6 b5 5b 87 cd 6d de bf
       -0.06976982499849661 -0.4754518339021544
0004b0 bf 84 f9 57 a0 f0 c9 3f 3c 59 b8 06 26 3e cd 3f
       0.2026558332027317 0.22845912292604875
0004c0 bd 04 b2 fa a6 7f dd 3f e1 61 7b 74 d7 16 d6 3f
       0.4609162758061521 0.3451441419142878
0004d0 f9 52 a1 16 8c a7 dc 3f 26 45 48 94 31 a8 c0 bf
       0.44772627077081456 -0.13013286342951708
0004e0 84 36 59 c6 ac 1a d2 bf e3 70 11 02 8a 46 b7 3f
       -0.28287810678453007 0.09092009115687776
0004f0 87 57 50 98 89 ca b8 bf 08 cd b3 5c 81 6b ba 3f
       -0.0968404766902876 0.10320290101281071
000500 e5 30 bd 4a 9d a6 d6 3f 79 31 50 b6 55 46 db bf
       0.3539193372605623 -0.42616789630917357
000510 f4 30 b7 07 30 52 dd 3f bc 95 bc db cc 45 cd 3f
       0.4581413340900007 0.22869263390854921
000520 05 1a d8 18 42 ef da bf a7 a8 c0 0d 5d 79 c5 3f
       -0.4208531611078857 0.16776621982109427
000530 16 de c9 7d 17 23 c2 bf 2c e3 30 13 32 bb 94 3f
       -0.14169591562289047 0.02024534456379283
000540 2e 9b 23 ec e9 c7 be 3f 58 3d 5a a5 cf b8 de bf
       0.12023794188608569 -0.4800299753923887
000550 d5 76 da ad 7c 8d a9 bf 47 89 e2 95 ca a4 99 3f
       -0.04990758535607901 0.02504269161057351
000560 ca 67 94 f8 3c e5 d0 bf a0 23 52 2e e0 c0 da bf
       -0.2639915874038904 -0.4180221989013777
000570 a0 26 04 0f 83 d1 a9 bf 4a 32 fc cc c1 b7 da 3f
       -0.05042657430938147 0.41746563928680713
000580 15 3f 49 dd 99 b6 c9 3f 7f 26 48 96 fd 48 96 bf
       0.20088504128443022 -0.021762811944461277
000590 d1 3a 52 93 95 5e d4 3f a1 5d e9 bb 10 29 d3 bf
       0.3182729662593547 -0.2993814311098167
0005a0 2a 45 82 4d 87 be ba 3f bd 77 4b 1f 52 f7 dd 3f
       0.10446973459535927 0.46822026306278614
0005b0 ec a7 e6 2a 3f 1a ac bf 68 8c 0d 6e d9 d7 dc bf
       -0.05488774679845662 -0.45067439792018726
0005c0 4b 92 68 c2 ab 83 ca bf e4 d3 78 ed d1 87 d8 bf
       -0.2071432780513923 -0.383289796739801
0005d0 30 56 cd 77 5a 6f dc 3f 9a 21 4e 61 05 3a d7 3f
       0.444296471590266 0.3629163217779251
0005e0 38 6d 36 f0 8b 1b d7 bf a7 d6 c7 68 c0 f2 b2 3f
       -0.361056313116666 0.07401659544106086
0005f0 64 fa 21 75 11 8c cf 3f 1a f2 99 be cf d2 ab 3f
       0.24646204203959876 0.054342739121214303
000600 7c e6 46 f6 86 f5 cb bf e3 84 0c 42 85 b8 d2 3f
       -0.21843039536706843 0.2925122399338546
000610 6e 71 44 1a 45 5e d3 3f de db d4 86 33 01 75 bf
       0.30262878003283944 -0.0051280987511778935
000620 c0 5b 50 97 cd 05 d2 bf e4 80 55 a4 2d 86 d2 bf
       -0.28160419251201674 -0.28943959282152165
000630 1c 31 26 41 90 1d d4 bf 9a 11 ba b4 7b 27 d7 bf
       -0.31430441248154906 -0.3617848648939571
000640 61 31 d8 91 51 b5 c9 bf 30 e0 53 3a f0 32 b8 3f
       -0.20084590550721784 0.09452725814833296
000650 94 72 bd bf d1 10 d0 3f 2b 8c 5f 8f 20 5a d7 3f
       0.2510265705548502 0.3648759269837593
000660 8c 1f 37 20 1f 4b dc bf 21 8b 01 51 ff 92 d4 3f
       -0.4420850576975617 0.32147200499291456
000670 73 d7 5a 13 59 a5 d7 bf d2 f7 27 21 f0 d6 d5 3f
       -0.36946703806039877 0.34124377477553225
000680 80 f2 ed b2 bc c3 da 3f 1f 73 1f 04 d2 e1 cd bf
       0.4181968448026865 -0.23345399094878247
000690 f9 45 62 c4 8c 65 c1 3f 8f 48 b4 e2 d6 47 e0 bf
       0.13591155613953257 -0.5087694576088938
0006a0 4e 54 a0 65 9a 8f d9 3f 18 f2 f3 6f 09 5e d0 bf
       0.3993898384517863 -0.2557395547189869
0006b0 3c 38 6c d7 5a fb c8 3f 7b d3 af be 93 be d2 3f
       0.19517074125946177 0.2928819048095687
0006c0 b3 29 0e ce f3 86 cf 3f c6 a5 74 c9 d8 47 cd 3f
       0.24630591927809817 0.22875509106351738
0006d0 63 3a 26 71 ab 95 da 3f 5b 99 54 42 74 38 d2 bf
       0.4153851132368002 -0.28469568708023524
0006e0 cc fa 42 b4 b0 0d b1 3f 49 70 34 82 5e 8c ca 3f
       0.06661514664572649 0.2074087272420704
0006f0 de ed d5 f5 7f 4a b9 3f f6 05 4a 51 e8 2f ca 3f
       0.09879302741858662 0.20458702058026262
000700 53 5d d9 27 0f 06 c0 3f e1 15 26 1b 32 dd c9 3f
       0.12518491216426728 0.20206285787223435
000710 3b ac 53 af 63 42 da 3f 04 da 04 91 94 18 d8 3f
       0.4103020870376814 0.37650026475913045
000720 26 84 dd 50 e0 bc d4 3f 85 22 37 2d 79 8e d8 bf
       0.324028090448396 -0.38369588294566653
000730 33 5c 06 60 7e f2 c2 3f 36 b8 99 da b1 1d d6 3f
       0.14802531899178603 0.3455624232073008
000740 7f 6c 5b f5 82 9c c0 bf 67 fd cf 95 bc dd c1 bf
       -0.12977635364845594 -0.1395793658739237
000750 b7 09 25 b7 61 b6 de 3f 9f b1 0a 38 2c 12 e0 3f
       0.4798816956064473 0.5022183508458972
000760 1e a8 cd aa 35 23 b8 3f ea fb 71 d1 e4 f3 d0 3f
       0.0942872564316137 0.26488609746587477
000770 07 e5 25 2e 0a 50 c9 bf eb bb 00 32 69 8b c9 3f
       -0.19775511983224467 0.19956698361917743
000780 df 10 63 ea 1b c6 de 3f 38 57 1c 60 fe 32 a6 3f
       0.48084161652901786 0.04335780070520773
000790 7e c1 e4 a0 7a 97 de 3f 3a 1e 93 76 e3 f3 d8 bf
       0.4779955455042212 -0.3898857744174823
0007a0 25 6d 89 b5 d9 df d0 3f ee ba 9e bf b1 df de bf
       0.2636627457447552 -0.4824032183923198
0007b0 53 5c 3c c5 9e 72 c6 bf 83 76 27 d4 b3 5f d4 3f
       -0.175372930819068 0.3183412143533603
0007c0 d9 b5 4c 79 8b 9d d8 bf b1 2c 60 3e 6b af ce 3f
       -0.38461577268284725 0.23972836061179728
0007d0 0f 39 19 30 d0 c6 d8 bf c4 d6 89 5a 66 ff dc bf
       -0.38713459679719703 -0.4530883678593052
0007e0 05 49 87 d6 92 99 e0 bf 60 99 1b a5 33 bb 9f bf
       -0.5187467756279892 -0.030987555458432126
0007f0 00 d6 2b 19 f6 a6 bf 3f 10 97 cf 3c d4 7b d7 3f
       0.12364137758762439 0.36693292559208235

module.model1.layers.0.0.bias f8 [1024]
000000 5b 9a 2c b4 4e 3d ce 3f 09 40 03 39 01 61 df 3f
       0.23624595449037397 0.4902957016720398
000010 2c f6 14 97 3a fd c3 3f fe ae 2a 29 64 3a d0 bf
       0.15616543175740227 -0.2535639192599176
000020 c1 ca a4 aa 52 72 d2 3f f8 94 06 4e 69 4d dc bf
       0.28822771706033384 -0.44222481364916133
000030 a9 1f bc fd c4 e2 bc bf 9f 24 e6 51 9a e6 b7 3f
       -0.1128352279157513 0.09336246966826643
000040 c9 51 5c f4 92 a0 c1 bf 19 1f 00 05 c6 bd bd bf
       -0.13771283084555666 -0.11617696401674173
000050 63 fe 11 08 19 e7 d8 3f 5a ad 99 77 58 1f b2 3f
       0.38910508907426883 0.07079079551629289
000060 5e 0a af ae 4e 2b ae bf f5 20 d7 a3 03 45 c5 3f
       -0.05892415888185519 0.16616864681260038
000070 f5 10 18 63 60 b7 d1 bf d2 0f 9d ff d0 da cc bf
       -0.2768174140658311 -0.22542774659279857
000080 ba 97 54 98 63 29 de 3f 83 54 a5 0a f9 37 db 3f
       0.4712761867143588 0.4252913097346395
000090 b0 96 93 f7 53 bc d2 bf a3 41 2f da f9 b3 d2 bf
       -0.29274462869066564 -0.2922348623951853
0000a0 3d 57 4f a6 69 0b db bf ce 0a a2 49 fe 9b c1 bf
       -0.4225715755577431 -0.13757303805694793
0000b0 bd ac 2e ae 52 68 df bf b3 7a 14 12 16 fa db 3f
       -0.4907423687934161 0.4371390511095498
0000c0 e7 e3 01 b5 04 d9 c7 3f 5f 0a c1 ae 94 00 cb 3f
       0.18631037557841454 0.21095522435105615
0000d0 fe 4c 48 2e 30 2e de bf 32 28 1a e4 ea f5 c0 3f
       -0.4715691043831639 0.13250480783273272
0000e0 40 76 b5 33 bb 68 c5 3f 00 4d c1 67 87 27 df 3f
       0.16725864434094895 0.48678765423137804
0000f0 27 90 ed 1a 96 95 d1 bf f1 ae 43 2e ab fb cb 3f
       -0.2747550261467517 0.21861781844142272
000100 cf 18 19 bf cd 30 d7 bf a2 60 0a b2 e7 94 c0 bf
       -0.3623537412826296 -0.12954422181497188
000110 24 61 89 1c 86 ed c6 3f 4e 9e 64 d2 43 35 d6 3f
       0.17912365334883262 0.347001033269838
000120 f2 41 e3 82 f2 00 d3 3f e2 98 72 5e 9f 79 dc bf
       0.2969328191948356 -0.44492325042155134
000130 25 7f b0 5d 75 d6 c9 bf b4 10 73 c3 49 4d ae bf
       -0.2018572528331727 -0.059183411701753924
000140 84 1c ee 20 4d dc a8 bf 52 ea a2 0e 93 de d0 bf
       -0.048555765409269674 -0.26358486584982643
000150 12 19 3e 90 79 20 e1 bf 0e d1 0b 3f 2a 08 de 3f
       -0.535214215968866 0.4692483535466331
000160 f6 42 ea 2b 30 b3 d1 bf 06 fd 14 8f 20 54 60 bf
       -0.2765617779596562 -0.001993239966992302
000170 6b f6 8b 8d 25 5b d4 3f ab ec a0 13 4d 90 da 3f
       0.31806315253184064 0.4150574390111596
000180 02 26 8c ae 48 f9 83 bf 79 92 45 9f 12 85 c9 bf
       -0.009752815081372827 -0.19937355782453262
000190 3a 79 68 93 b0 83 c6 bf 74 71 f1 21 fd b0 d6 bf
       -0.17589385221158144 -0.3545525390125228
0001a0 ac c4 3c b9 ef 74 da bf b5 13 f9 70 77 8b ac bf
       -0.4133872326811552 -0.05575154546799103
0001b0 0b 15 90 bf 1c c1 d1 3f be a4 2e b0 1c da d3 3f
       0.2774116392832446 0.31018750386517613
0001c0 30 9d 26 15 d9 3d d8 3f f7 9d 41 f3 d6 23 d3 3f
       0.37877490106116607 0.2990624785947768
0001d0 60 40 ea ea ad e8 b4 3f 8d a3 05 df 04 09 48 bf
       0.08167540536146722 -0.0007334970269258098
0001e0 44 33 13 3a a6 1c 96 bf 36 6f e2 16 70 22 d4 3f
       -0.021593663496605645 0.31460191950621963
0001f0 ed 8a 29 d5 1b 7c 96 bf 5e 3f 8c b5 fc fd dc 3f
       -0.02195781219996722 0.45300214509278713
000200 21 8b 8c e4 a4 4c ce 3f 7b 26 80 06 22 53 d1 bf
       0.23671399268740692 -0.27069903025458303
000210 45 f8 37 09 02 9c d1 3f c3 a3 1d 93 23 3f ca bf
       0.27514696979767833 -0.2050518482531328
000220 d8 08 55 31 68 f4 b3 3f 76 c3 7f 5c c7 fd d3 bf
       0.07794810490034665 -0.31236442597496905
000230 66 b9 6f 3c 99 85 d8 3f c0 cb 05 65 78 6a df 3f
       0.38315421010965733 0.4908734308766576
000240 d9 1d ad 5f 6b a4 d4 bf 1d 3e e0 03 59 84 bf 3f
       -0.32253536551840295 0.12311321587207442
000250 46 d9 c4 5d 59 e7 cf 3f 4f b1 85 18 ee 2e c4 bf
       0.24924771383821048 -0.15768219182371943
000260 bf 00 44 d1 a3 3d e0 3f 1e 13 0b fd ee 06 be bf
       0.5075244033069096 -0.11729329755605675
000270 d8 4e 96 26 d2 37 de bf b3 ee ad 3b 4d 9c bb 3f
       -0.4721570374324364 0.1078537245465963
000280 8c bc 25 2f 84 ed d8 bf c1 f6 6e fc 74 ef dc 3f
       -0.38949684719313704 0.45211529399589884
000290 38 0e e5 00 e9 af d5 bf 0b 3b e2 34 22 07 cf bf
       -0.33886170470597987 -0.2424052007886178
0002a0 55 01 b5 8b d2 fe ca bf 99 6e 18 a9 84 c2 d0 bf
       -0.21090156385072115 -0.2618724490473397
0002b0 73 0b 3e f3 60 06 d6 bf fc cb a2 5f 11 5f d9 3f
       -0.34413932565819677 0.3964274820274907
0002c0 a4 ea 54 1f df 42 b3 3f de 24 8d 66 e4 50 b0 bf
       0.07523912920889103 -0.06373431686110417
0002d0 69 f4 4a 92 18 e8 aa bf 4f 09 72 68 b5 9e dd bf
       -0.052552001817709755 -0.462811805722727
0002e0 3e 88 53 a2 62 e7 d5 3f 4c 44 e3 dd 29 5e ba 3f
       0.3422476372926474 0.10299932162458098
0002f0 8b ab 8c 90 03 a8 d0 bf a5 5c 64 62 e8 3a de bf
       -0.26025475612794285 -0.4723454438075783
000300 dc 4c 64 c3 c5 4b c2 3f 05 e2 71 de 9d 54 c8 bf
       0.1429373935758126 -0.19008229600491702
000310 3a 9f 45 0d 9e 7c c8 3f f1 36 a2 d4 81 3f b4 bf
       0.1913030209354874 -0.07909404221774331
000320 1c 4f 0e fa f4 fa b5 bf e3 4c 20 4b ed f2 d3 3f
       -0.08586054901962509 0.3117020829824481
000330 c9 1f 1c 2b 3b 1b d4 bf ec 1a ab c1 8e 03 b1 bf
       -0.3141620560641028 -0.06646053531867907
000340 c7 0e 54 4a a2 85 e0 3f 3c f5 bd 1b c3 15 91 bf
       0.5163127376294704 -0.016684578483809206
000350 d9 de d9 f9 b5 2e c0 bf 42 c2 49 f2 eb b5 d0 bf
       -0.12642550182112336 -0.26110361729573495
000360 9d 1e d1 b8 f4 14 c3 3f 7e 6a e2 ea 95 0c c7 bf
       0.14907702469121356 -0.18007158249823257
000370 52 67 c9 dc c6 a8 d4 3f ce 46 82 b2 66 24 d0 3f
       0.32280131875233053 0.2522217505694301
000380 a8 51 65 36 14 b5 c1 bf 2b 0d 2a ae 9d 01 c5 bf
       -0.13833859115642366 -0.16411181453813958
000390 58 5c 2c 6e 7d a5 a5 3f 54 fa 6e 58 12 54 df bf
       0.04227821321381303 -0.48950632701954544
0003a0 a6 64 50 b9 c1 ad d4 3f b9 59 c0 ed ee 5c da 3f
       0.3231052694041615 0.4119221994200433
0003b0 78 d0 1e 81 31 b4 c3 3f 02 40 c3 64 b0 a5 d8 3f
       0.153936565444045 0.3851128562937448
0003c0 3b 55 70 13 62 44 b7 3f 5f a9 bc 36 e1 ed b6 bf
       0.09088719343738642 -0.08956725679732845
0003d0 27 34 2a ae 09 2a 9a 3f 06 12 04 99 a5 74 e0 3f
       0.02555098653333601 0.5142391193954274
0003e0 50 10 a0 b3 9d ad c1 bf f2 7d 23 25 77 cf d7 3f
       -0.1381108405186091 0.3720376837427174
0003f0 83 4a 52 d8 14 fa da 3f 2f b4 a8 40 46 c9 81 3f
       0.4215137588991313 0.008684681747661653
000400 bc 40 8e 39 01 00 b4 bf b0 47 97 72 f9 15 d3 bf
       -0.0781250730053697 -0.29821621122857334
000410 93 60 06 a9 52 a2 bb 3f f8 b7 11 81 ab 59 c4 bf
       0.10794560076317543 -0.15898650934417424
000420 0a 21 83 0c 31 37 dd bf d7 9b 22 86 a5 fd 9b 3f
       -0.4564936277570416 0.02733477240749579
000430 a8 a3 92 32 f8 c6 c2 3f 9f a1 00 8b 1a 0f d9 3f
       0.14669706792235826 0.3915468556829413
000440 f3 5e 16 20 a2 f0 b0 bf 69 2c 10 cb 09 91 c4 bf
       -0.06617177279838042 -0.16067621627039166
000450 6d ba 2a 65 63 30 d2 3f f6 d5 df f9 90 6e d9 3f
       0.28420338515835547 0.39737343217652155
000460 5b 2f 98 9c f0 69 cd 3f 1d 82 c0 de 12 9b c5 bf
       0.22979552885260088 -0.16879497410356317
000470 2e 24 35 58 9e 02 c4 3f 79 f9 b5 6d 47 57 a8 3f
       0.15632991129885582 0.04754088606113078
000480 96 21 00 85 a4 53 da bf 2c 1a de 27 bc ab d5 bf
       -0.41135514248210236 -0.3386068715412047
000490 f5 1e 87 c3 98 37 de 3f 32 e2 87 a5 20 b5 d7 3f
       0.47214335531724255 0.37043014683834763
0004a0 39 11 1a 02 cc df c8 3f 7f ce b9 2f 87 36 be 3f
       0.19432973959568203 0.11801953234845007
0004b0 41 af 2f d9 08 2a d3 bf c4 7f 09 8c 9a 0d 97 bf
       -0.299440586181607 -0.022512831494509347
0004c0 56 2c 18 94 52 52 c4 3f 3a bb 8c d5 66 8c cf 3f
       0.15876228552983446 0.24647221972687722
0004d0 e5 77 d0 0a 68 9f d1 3f b2 0a 92 b5 5a cf c0 bf
       0.2753543954476057 -0.13132795205827602
0004e0 cf 6e 07 10 97 fb b5 bf 13 e0 2f ec cb 0e c9 bf
       -0.08587021008809902 -0.19576405556267726
0004f0 57 85 aa 2a d9 c2 d3 3f 12 dc 76 40 06 be d3 3f
       0.30876759688006444 0.30847317023602827
000500 35 f3 c6 91 f9 47 98 bf a9 7b f3 1d f4 21 db 3f
       -0.023712062380343474 0.4239473621836916
000510 f0 04 98 e2 49 af de bf c5 58 24 71 1d d7 b5 3f
       -0.4794487679319692 0.0853136445260559
000520 0e 23 9b 40 9e c8 c4 3f 3e 23 0b 2f 1c 12 d4 bf
       0.16237238077726385 -0.31360535234539444
000530 58 62 45 20 82 19 d3 bf 24 47 8c ad 0e cb d1 bf
       -0.2984319033762737 -0.27801863620799083
000540 9f 86 89 5b 96 a9 d1 3f f4 57 ad c4 e2 df dd bf
       0.2759757894437857 -0.4667899056124718
000550 15 fc fe a3 6f 05 c2 bf 2a 53 77 9a 80 88 df bf
       -0.14079089648836943 -0.4927064426859028
000560 d6 8a 61 27 7e 74 bc 3f 22 16 45 d7 73 da ca 3f
       0.11115253888560103 0.20979164134239264
000570 33 e8 ac dd 73 d4 a4 3f d2 da 37 ae a7 fe 25 3f
       0.04068338471411472 0.00016780659562672676
000580 df 5a 9a 76 42 93 da bf 41 2d bb 3a b8 15 c5 bf
       -0.4152380140525746 -0.16472533099872957
000590 3d 1a d8 1b 32 c9 c9 bf c2 03 fb 6c d9 2c c2 3f
       -0.20145250663354544 0.1419936926013446
0005a0 63 f0 21 f1 67 59 db bf 7a c5 fb b2 20 f3 7b 3f
       -0.42733191059210734 0.006823661547728727
0005b0 59 d8 92 69 f8 43 da bf ca 34 1c 63 49 c5 d5 3f
       -0.4103985815994569 0.3401664226410729
0005c0 fc eb 2d 72 d1 c4 cd 3f 11 0e a6 c3 2c 47 e0 3f
       0.23256891322293416 0.5086883374464738
0005d0 53 fe db 5c 0f c4 b1 bf 56 a6 1a 21 3f 95 cf 3f
       -0.06939788834642373 0.2467421447411648
0005e0 d3 23 4d 4f 86 8f c3 3f 82 bb 95 f7 1d 85 cc bf
       0.15281752464423323 -0.22281241025072168
0005f0 28 6b d8 35 1d 3c ba 3f 23 ff 4d ba 53 4f c2 bf
       0.10247976841530415 -0.1430458697977822
000600 88 cc 33 f9 ad c4 d6 bf 99 bf 51 57 0e 52 d3 3f
       -0.35575436912694913 0.30188330199507046
000610 95 69 89 bd 92 94 c3 bf ae f7 19 63 fc 8a 44 bf
       -0.15297159437870947 -0.0006269199713668705
000620 cc 4c 9f bf f6 3e ba bf 0a 80 d5 4e 9d d9 de 3f
       -0.10252325228002518 0.4820321340430388
000630 76 42 83 89 bd 13 bd 3f 6c 7e b1 b2 8c bc c9 3f
       0.11358246428722815 0.20106657719860566
000640 ca b9 24 88 0e b3 d6 3f 1e 4d ef ad 25 f8 b0 bf
       0.35467875762233503 -0.06628642555670125
000650 07 35 96 17 b5 10 9a bf ee d5 4f 52 25 95 cb bf
       -0.025454358639355436 -0.21548906821378416
000660 10 88 e3 54 e1 a2 a7 3f a5 98 51 fc 9b 06 da 3f
       0.04616455231895611 0.40665340080739504
000670 77 de 0d da c4 e9 d3 bf 29 cb 2c 46 46 78 c4 3f
       -0.3111431245265303 0.15992048670303774
000680 80 a9 c2 fe 75 4d d0 3f 4a 69 dc 20 5a 85 ae 3f
       0.25472783926911546 0.05961114550719289
000690 7a 8c 99 ac 30 d0 b0 bf c9 fd 1e f9 3e 84 ca bf
       -0.06567672933447169 -0.20716082729448562
0006a0 54 cc f3 4d 6d 09 d8 3f 52 30 6f a0 62 02 db 3f
       0.37557537663014284 0.4220205847493662
0006b0 0d c6 6f a9 ee a8 dc bf db 72 dc 9a bb f8 95 3f
       -0.4478108076719714 0.02145665295312225
0006c0 91 c8 e1 f0 de 65 dd bf 99 46 26 d4 0c a3 99 3f
       -0.4593427040446239 0.025036049316958218
0006d0 6e 0c ec 1c f3 2c da 3f 39 f4 c0 89 0e 84 d4 3f
       0.4089935095254934 0.3205601067782627
0006e0 ce 03 1a e6 89 4c d0 3f f1 f8 61 11 49 f0 ca 3f
       0.2546715495191706 0.2104579291225899
0006f0 94 97 fc 83 fc 57 b7 bf 3b a0 c7 e8 82 ab c9 bf
       -0.0911863157494664 -0.20054661146355265
000700 2d 1b 77 3f 90 11 a1 bf d7 6e ad 6e bb ad b4 bf
       -0.03333712362978356 -0.08077594234549267
000710 82 c8 e4 60 b2 8e c1 bf ea 95 04 53 e9 31 c4 3f
       -0.1371672604669279 0.15777317575081834
000720 56 09 38 df 79 65 c0 bf f5 16 18 94 ae 7d e0 bf
       -0.12809680365905746 -0.5153420345747849
000730 0e 8a 68 58 13 e7 b7 bf 3a 9c 31 78 06 14 c1 3f
       -0.09336968334586279 0.13342362278783232
000740 0f 6d 10 c0 1c f8 b8 3f 17 c1 4f b9 78 08 d5 3f
       0.09753589333597666 0.3286420640643128
000750 be 93 dd 31 29 75 d8 3f 12 21 da 33 7d aa d0 bf
       0.3821509348838922 -0.26040582717588834
000760 ce 12 9b 8e 4c 71 c5 bf 1e 4a 5b 52 28 ba da bf
       -0.16752011264011063 -0.4176121525062245
000770 b8 89 11 2b 4f 6c c3 bf 7d b6 77 8f 79 1b d8 bf
       -0.15174283602671124 -0.37667693148146225
000780 3b 17 4f ad 3f 50 d2 3f 25 95 58 40 83 d4 be bf
       0.28614799427701926 -0.12043018647144217
000790 2d 73 2d 62 45 8d bd 3f 55 56 c4 10 74 0e c8 bf
       0.11543687483704153 -0.18794108217905384
0007a0 47 38 a6 c5 63 7f ce 3f 10 1e e6 c1 f2 f4 aa bf
       0.23826262617916624 -0.05265005700044523
0007b0 08 7e 6f c8 0f b9 a5 bf e6 81 8f 05 fc 0c d9 bf
       -0.04242753335688226 -0.3914175085356234
0007c0 48 5d c2 fe 1b ea a3 bf a7 a0 38 b6 82 8c a8 bf
       -0.0388954876408954 -0.0479470107496252
0007d0 b2 10 f9 ff fa 85 8e 3f cd 67 09 a5 6a 65 d3 bf
       0.014903984963105497 -0.3030649768530765
0007e0 62 cd 49 2b ed 32 c7 3f 0d db 76 2e eb a2 c1 3f
       0.18124165166555445 0.13778438347591085
0007f0 8f 07 1e 55 c1 3c da 3f 0e 53 c8 57 b8 5a c0 bf
       0.4099582034324322 -0.12776855741744736

module.model1.layers.1.weight f8 [4, 1024]
000000 5d 34 a8 81 42 08 93 3f c5 96 2c 73 f5 60 a1 bf
       0.018586196101797337 -0.0339428618520237
000010 ed 4b 3f 13 82 e0 8d bf a8 65 8a 76 2f dd 95 3f
       -0.014588371479396367 0.02135156785025108
000020 5e 80 11 ec eb 30 7a bf 56 86 1b 63 5c 25 a2 bf
       -0.006394311495654474 -0.035441290948949586
000030 54 08 bf 06 c8 dc 95 bf bc 99 95 13 e6 bd 6f 3f
       -0.021350026523358004 0.003874730461279811
000040 97 8d 7e 49 36 52 96 bf 6a 3b 55 89 e1 fc 82 3f
       -0.021797989116419805 0.009271394733017597
000050 c1 e5 a7 4b a4 10 7e bf 7b 6c 4e 22 0c b3 7b bf
       -0.0073400895876089564 -0.006762549780343292
000060 d7 81 b4 6a a5 12 93 3f c8 3b 66 06 58 91 7d bf
       0.018625816953432874 -0.007218688819547965
000070 cb 3f 49 1b 62 e5 81 bf 83 28 cf 34 92 37 75 3f
       -0.008738295037943452 0.005179949873261094
000080 93 c8 64 18 f5 c9 a8 3f 6e ce d9 61 3c 94 a0 bf
       0.048415812709564986 -0.03238094992130135
000090 10 ab d3 ca 0c b3 68 3f 46 20 d8 19 77 cc 8e 3f
       0.0030150651788195607 0.015038423992351235
0000a0 40 ac b5 9e 06 ee 58 bf 80 ad fa d3 b8 d1 9d bf
       -0.0015215935371439976 -0.029120338380989264
0000b0 1a 4c 23 33 3c 10 a6 3f 8a d6 bc 59 36 b7 9f bf
       0.043092614405076016 -0.030972336985732464
0000c0 77 c1 94 16 db a3 6b 3f 78 d8 6e b4 48 a8 6d 3f
       0.0033740309778737504 0.003620283128351661
0000d0 de 1f 20 74 85 d5 9f 3f 26 3e 43 c3 24 cc 9e bf
       0.031087956631409834 -0.030075621049773592
0000e0 26 79 55 ce 32 c6 90 bf 50 5a 7c c9 6e 8a 8e bf
       -0.016381067126865954 -0.014912477039200983
0000f0 22 16 a4 56 7d a0 94 bf 1a 74 21 b5 60 3c a5 3f
       -0.02014346925081701 0.04147627078121037
000100 7a 62 c8 19 8e c5 76 bf bc 92 7f 97 0c 53 99 3f
       -0.0055594969567428435 0.024730870005344782
000110 89 f8 f0 21 92 57 9b 3f b7 71 d5 1c e0 48 8a 3f
       0.026701243707286913 0.01283431137078926
000120 5d 2e d0 9b 8b ef 7f 3f 9f 05 fd fc 4e ea a0 3f
       0.007796807619353166 0.033037632353180905
000130 2f cb e0 aa 58 35 98 3f c1 f9 f8 07 a0 a6 81 3f
       0.023641000203677705 0.008618593447974445
000140 26 70 7a 5c de 67 83 3f fe dd c6 de 3d 13 a3 3f
       0.009475457379544205 0.03725617737239516
000150 76 b0 eb a6 f5 bb a2 3f 56 03 de 15 62 69 9b bf
       0.036590267778451244 -0.02676919229952842
000160 e6 13 04 8c 4e cf 97 bf 69 93 5f 21 1b a5 9d 3f
       -0.02325175027455719 0.028950141822764595
000170 28 41 df fb e4 e2 a6 3f 9b 44 71 47 44 0f 70 3f
       0.04469981741533707 0.00392080947411091
000180 94 2a 6f 8f 77 61 80 bf f4 2c b1 38 bc dd 89 3f
       -0.00799840361095975 0.012629957656960823
000190 04 2a 93 e7 6e 5f 6d bf 18 61 ed af b1 b6 a8 3f
       -0.003585545168424577 0.04826884529637904
0001a0 07 d6 64 1f df 3f ae bf d9 aa 14 25 a8 41 a9 bf
       -0.05908105142809111 -0.049329046751457724
0001b0 f9 6e 8d 52 0d ff 9e 3f 6e 62 d2 17 e9 6e a3 3f
       0.03026982132301634 0.037955555112778025
0001c0 56 a1 9d d1 9d ec 3a 3f 9f 7e 0d f6 ca 24 78 3f
       0.00041083195684745355 0.0058944633645691405
0001d0 dd 48 d0 ea 25 97 80 3f f4 07 c7 2e c7 75 a1 bf
       0.00810079214901232 -0.034101700267925056
0001e0 64 ee 9b 40 6b 51 97 bf 27 24 26 98 e9 f4 99 bf
       -0.022771526163508318 -0.025348329459607435
0001f0 a2 e6 f6 3a 10 74 a1 bf 31 4d 1e e9 20 9b 97 bf
       -0.034088618467149404 -0.02305270598260484
000200 66 f3 d2 77 85 28 9a 3f 86 a6 01 82 15 82 a0 3f
       0.025545201719740084 0.03224246227257503
000210 00 24 e4 d4 34 d4 82 3f 0b 36 fd 66 73 1f 6b 3f
       0.009193814036295933 0.0033108953429408275
000220 49 23 fb 24 6d fe 81 bf 49 af ca eb 4d b1 ad bf
       -0.008786060992308402 -0.057993350060626066
000230 44 18 45 19 8c 22 a2 3f b5 bc 44 35 3a 0a 98 3f
       0.035419824681000495 0.023476514340640537
000240 7e b9 81 20 44 2e 71 bf 79 df 1c 23 4c 05 79 3f
       -0.004194513436330259 0.006108567629602984
000250 eb dd 46 68 5a 81 a8 bf e9 dc 60 34 fc 51 9d bf
       -0.04786188624296613 -0.028633061119958923
000260 15 70 b8 19 9b 19 a5 bf 00 c8 9c a4 f2 8a a0 3f
       -0.041210982217507 0.03231008777073896
000270 14 87 d3 8a 6f 5c 98 3f d6 8f 79 33 bd 06 58 3f
       0.023790114258083042 0.0014664504687056288
000280 ed ca 8e db 7d b2 ae bf b7 f7 20 f2 7d fe 77 bf
       -0.059955533076751034 -0.005857936836091974
000290 93 b1 d6 21 26 3c 95 3f a4 29 74 89 53 f0 84 3f
       0.02073726254973136 0.010224011070495483
0002a0 55 5a 39 3b 41 d8 a9 bf cf f1 6f 3f 3d 77 82 3f
       -0.05047801826429025 0.009016493318989042
0002b0 04 cf 4b 46 5a 04 95 3f d1 20 16 25 6e cb a4 bf
       0.020524416485343103 -0.04061454966273604
0002c0 64 88 5e c8 df 91 5f 3f 2a 47 9a 41 e4 92 82 bf
       0.0019268689515930188 -0.00906923604205508
0002d0 b2 10 6b 4d da 2f 79 3f 0e 06 1d 5a c4 82 68 3f
       0.006149151557739584 0.0029920420646767426
0002e0 88 49 7b 6c e4 75 71 bf fd 7b c1 56 cd 67 a2 bf
       -0.004262821464822493 -0.03594819721251239
0002f0 a7 10 c6 d0 4f 92 89 bf 36 2d 9f d3 f5 dd 80 3f
       -0.012486098822371906 0.00823585559910232
000300 0c f8 d3 93 06 98 94 3f 08 60 83 09 88 0e 92 bf
       0.020111181996064473 -0.017633557873381306
000310 5d f1 ba 68 34 81 78 3f 30 35 8b 31 d0 e0 64 3f
       0.005982594225937579 0.0025486055641069857
000320 f1 3a 8a 97 04 26 75 bf 64 1e c0 c1 8c 9d a5 bf
       -0.00516320985538131 -0.042217634822063116
000330 4e 56 93 f7 30 8a 9b 3f 23 6f 5a 52 bd e9 9c 3f
       0.026894345389186385 0.028235395575946797
000340 29 91 5c e2 4d c0 9e bf 2f d4 6a a9 ea e6 95 3f
       -0.0300304574403906 0.02138868960419787
000350 0a f4 72 3c 40 5b 80 3f e0 02 c8 15 95 56 73 3f
       0.007986547322042643 0.00472124325142495
000360 aa 6c a6 33 a4 2f 77 3f f1 08 7e 86 ba ec a0 bf
       0.005660668767087854 -0.033056095998306285
000370 98 57 e2 c8 12 76 80 bf ee dd f8 c5 61 b1 6d 3f
       -0.008037707095620836 0.0036246213565183016
000380 5c bf 9c 4f 5b 18 96 3f f5 49 4b a3 62 fd 94 3f
       0.021577288374089107 0.020497838226967564
000390 90 79 4b 54 25 a7 4b 3f 3e 58 bd 00 82 8e a1 bf
       0.0008438999435290018 -0.0342903734114519
0003a0 2c 0d ce 55 30 f0 81 3f b8 8d 8f 3a ee b5 79 bf
       0.00875890504699458 -0.006277018147531725
0003b0 32 12 9d fd 3e 65 91 bf c0 d3 fe 5d 4c a6 79 3f
       -0.016987785558074182 0.006262110051399483
0003c0 b9 f4 73 e2 3d 2d 9a bf bc e2 86 7e d2 ff 88 3f
       -0.025563208529082646 0.012206692205709906
0003d0 82 77 e2 5c e2 16 9b bf 5e ac f7 a3 4b 6a 92 3f
       -0.02645448390887096 0.017983610041408908
0003e0 f1 73 3b 92 b7 23 a7 bf 9f f8 c4 fa 97 4e 98 bf
       -0.04519437465726373 -0.02373731105876031
0003f0 aa 68 15 e5 0f dd 9e bf b5 2f c0 3f 0c 01 8e 3f
       -0.03014015994754319 0.014650436110990353
000400 3f 0e 88 8a 9d f2 8c 3f 2d 5d e8 90 c7 d2 a5 bf
       0.014134627142090682 -0.04262374538319089
000410 89 0c 67 55 61 40 9a bf ec 1e 12 9e fe a2 81 3f
       -0.025636216008717603 0.008611668776452551
000420 3e 52 75 fa 6f fa a0 bf 75 8d 81 98 46 b5 6b 3f
       -0.03316068584777952 0.0033823374579228745
000430 c3 99 2d 75 45 48 99 3f c3 19 ce 64 01 13 85 bf
       0.024689755703912086 -0.01029015625841801
000440 36 eb 62 61 8e 6f 8b bf 5b 88 7f 41 19 a0 a4 3f
       -0.01339637026500427 0.04028395580805074
000450 b4 22 00 7b 44 d3 8a bf 10 57 47 b4 a2 d6 a5 bf
       -0.013098273280790586 -0.04265316439311395
000460 e0 13 ac 8d af cf 26 bf 22 fb 18 91 70 08 a6 bf
       -0.0001740361975281204 -0.043033139907939125
000470 f6 fd 1c 0f b2 08 9b 3f 1c 2f 20 49 f9 12 9f 3f
       0.026400358364524444 0.030345816696395564
000480 3c ac d0 97 83 cf 86 bf 93 f2 65 4d e7 ce 3a 3f
       -0.011137989111452133 0.000409060926720697
000490 5f c1 21 b2 85 54 6f bf ad a0 58 56 3e 92 8b bf
       -0.0038244830366737505 -0.01346253109939285
0004a0 38 2e 5a 50 9b 52 8a bf 49 05 3c 39 89 44 8c 3f
       -0.012852872266441925 0.013802597102314922
0004b0 79 2f fb 50 1c 32 99 bf e3 66 5f c0 94 8b 7d bf
       -0.024605219309520508 -0.007213192997335335
0004c0 25 7b 8f 3f 47 53 a3 bf 88 cd 33 5e 50 05 8b 3f
       -0.03774473811039617 0.013193729281261182
0004d0 e1 0f 3d fb a1 93 89 3f 36 af 27 a5 58 28 a0 bf
       0.012488618354502936 -0.0315578176121946
0004e0 67 49 3f 7a 98 5d 7b 3f f3 76 7d 15 f0 17 90 bf
       0.006681056609482239 -0.015716315566684135
0004f0 b0 b2 a5 e6 2a ca 79 bf f0 90 d7 cb e9 fb 7c 3f
       -0.006296317655465941 0.007076180712349819
000500 48 0b 99 4a 77 93 8e bf 21 25 43 3f 53 08 54 3f
       -0.014929706539197021 0.0012226880035533588
000510 40 3e 94 48 d9 b5 94 3f 16 cc 57 a3 e5 c9 a3 3f
       0.02022494798171537 0.03864972704823104
000520 5c c9 5e a2 a7 2b 33 bf 90 df c1 c4 5e 93 87 3f
       -0.0002925190223052232 0.01151155507999116
000530 5b 87 50 01 1e e0 86 3f a5 b1 67 a9 68 ae ac bf
       0.011169657149426795 -0.056018133811309746
000540 70 dc 3e f7 37 34 95 3f 59 ae a9 c7 b1 8d 7f 3f
       0.020707010713263363 0.00770348973547249
000550 e8 52 0a c5 6e 94 91 3f cf e6 42 1a 46 95 ae 3f
       0.017167788292300395 0.05973261900494508
000560 c5 d3 75 29 fb 0e 9f bf 0d 5b e6 c7 fa bc 8e bf
       -0.030330585866483312 -0.01500888750596865
000570 6f 8a a7 e7 7c 4a 84 3f 67 ea 01 4b e5 18 91 bf
       0.009907699412854158 -0.016696531966298524
000580 84 cb 28 5a de 56 99 bf b4 ba 2b 41 f9 6e 92 3f
       -0.02474543977059397 0.01800145588179687
000590 29 5d f1 fd 01 a1 6d bf f8 38 24 68 b9 e5 a2 3f
       -0.0036168135552931036 0.036908906900963545
0005a0 09 3e 8a 88 b7 16 a3 3f 30 6b cd 47 90 92 94 bf
       0.03728269140003355 -0.020090345747443894
0005b0 17 3e b2 56 25 2f 7b bf 2e f0 88 db 53 a3 98 bf
       -0.006636758665208762 -0.024060545229289847
0005c0 ac 93 fb cd 5b 0f 9d bf bb b3 75 bd 4d c7 79 bf
       -0.028378900954425454 -0.006293586418320392
0005d0 1f 96 7b 9e cf 0b 9e 3f 0e 90 80 30 e6 89 5c 3f
       0.029341930435199722 0.0017418621009790444
0005e0 0c 09 bb ee 5a 22 6b 3f 4b 7a d2 72 3f 93 72 bf
       0.0033122802759361133 -0.00453495773868313
0005f0 e7 39 b3 57 00 f2 51 3f 45 5a bb 7d 6a 67 a0 bf
       0.0010952952714436916 -0.03203900132000518
000600 8a fa c1 12 db 03 7b bf b4 77 26 49 e6 13 a6 3f
       -0.006595474009485467 0.04312057154605445
000610 94 7e c3 c2 f0 1b a2 3f 75 20 d4 b8 9f 94 73 bf
       0.03536941888318981 -0.004780410684595994
000620 d0 50 70 3d ea 44 9d 3f 0c e5 33 38 5c 44 95 bf
       0.028583202361986804 -0.020768586092320837
000630 ac c0 2e 78 06 95 82 bf 70 8e 0a 13 6a 25 98 3f
       -0.009073305647547457 0.023580224430260477
000640 19 0e 61 fd 63 fb 90 bf c0 29 b3 79 0d 76 a8 bf
       -0.016583978977236045 -0.04777567015260642
000650 8b b9 0b 4e ed ea a1 3f 8c b1 18 76 70 8d 95 bf
       0.0349954755564453 -0.021047360618625485
000660 6c a2 12 ab c7 d6 78 3f 69 22 aa a8 66 18 90 bf
       0.006064205125917082 -0.015718082470387893
000670 f6 75 9c e5 64 e4 a0 3f 2b d8 69 ec d9 1e 91 3f
       0.032992508915622595 0.016719250731022022
000680 c2 d9 4d 35 fe 88 8a bf 12 41 06 94 0c 7e 6c bf
       -0.012956605912887723 -0.003478073660694866
000690 68 dc e9 bc 91 35 98 3f 93 fb 3b e2 70 47 91 3f
       0.02364185061966531 0.016874088104482942
0006a0 eb 62 5d c1 12 f6 98 3f f9 b2 41 d8 b1 c3 a2 bf
       0.024376195003557404 -0.036649282120242384
0006b0 62 c9 0c 98 34 3c 8a bf 74 12 b3 69 36 c2 80 bf
       -0.012810145273395693 -0.008182931042378196
0006c0 a6 59 7f 07 df a4 95 bf b5 38 06 bd 74 48 85 bf
       -0.021136746246918435 -0.010392105120243003
0006d0 c5 ad bf 58 76 63 73 bf 23 b5 fb 1e d1 a4 aa bf
       -0.004733526508043655 -0.05203870299542703
0006e0 6e 76 76 09 8e 34 93 3f c2 d8 27 aa 25 1e 5c bf
       0.018755168273506255 -0.0017161720103309607
0006f0 6c ed 72 c4 e8 22 98 bf e3 56 27 53 13 e9 98 3f
       -0.023570668211261234 0.024326612425133908
000700 eb d9 e5 2a cd fe 54 bf d9 bc c7 8a 13 88 99 bf
       -0.0012814525212810856 -0.02493315252825998
000710 d8 2a 90 e8 14 1f ad 3f 8c de 40 f1 d7 5b a0 bf
       0.05687775935083089 -0.03195071048724882
000720 aa f5 d6 72 d4 b9 a1 bf d7 c3 dc 6e 63 ed 92 bf
       -0.03462089444972645 -0.018483689919950166
000730 0f d7 96 d0 30 1a 9d 3f 88 65 1b 18 a7 26 9b bf
       0.028420222026134086 -0.02651463589322625
000740 45 2a d9 93 dd f6 94 bf c6 98 5d 9e 14 d8 6a bf
       -0.020472967289871375 -0.003276863356336343
000750 cb 65 00 e9 4c 25 a5 bf 79 28 dc c3 78 5f 8f bf
       -0.04130020469910852 -0.015318816640064835
000760 9e 67 da 24 64 9e 9a bf 71 ae 4d 91 c4 0b a1 bf
       -0.02599483942922342 -0.03329290651057882
000770 74 d0 0d d0 ae 08 91 3f d7 86 71 17 2e c6 98 3f
       0.0166346849905072 0.024193496876597855
000780 18 9d d9 37 f2 0b 93 bf 76 44 1f 31 34 d9 a1 bf
       -0.01860025850183175 -0.03486025905261496
000790 de 2d e2 6c 23 55 55 bf ae 9f 34 91 1a bd 56 3f
       -0.0013020368528796548 0.0013878592915918908
0007a0 58 5b 24 0c 0c 10 98 3f 6c 76 36 15 7f 09 8d bf
       0.02349871467694284 -0.01417826922880324
0007b0 10 10 72 9a 1b 3f 94 3f 01 d9 36 0c 29 b8 91 bf
       0.019771987249001255 -0.017304078455446795
0007c0 bc 74 9c d0 a8 76 85 bf 46 89 80 c7 a4 10 8c 3f
       -0.01048023115759588 0.013703620279618033
0007d0 1c a6 09 37 48 f1 7b bf 3b 22 87 eb 61 7c 92 bf
       -0.0068219014070592075 -0.018052606583099467
0007e0 b0 0b 7d c9 0f b9 9d bf 00 83 87 c5 d2 6d 87 bf
       -0.029026266739730466 -0.011439940121762415
0007f0 76 03 5f f3 af a8 76 bf 97 57 e2 8f 9e 2d a1 3f
       -0.005531966502474775 0.03355117327116302

module.model1.layers.1.bias f8 [4]
000000 ed 0e d0 a7 88 ee 50 3f 98 92 59 3c 21 d0 c6 3d
       0.0010334333921954667 4.1496618245533687e-11
000010 7d e8 57 ae 5f 5c c1 be 00 ab 0c af a4 4d 68 3d
       -2.069572803573232e-06 6.907411638271861e-13
